crates/burn-store/pytorch-tests/tests/conv1d/conv1d.pt (torch, 1805 bytes, 3 tensors)

conv1.weight f4 [2, 2, 2]
0	0x3e83e84a	0.2576316
1	0xbe61fc54	-0.22068912
2	0xbdc683a0	-0.09693074
3	0x3e705120	0.23468447
4	0xbef10202	-0.47071844
5	0x3e998712	0.29985863
6	0xbdd2a9a8	-0.102862656
7	0x3e823d0a	0.25437194

conv1.bias f4 [2]
0	0x3d8e5a78	0.06950849
1	0xbd7ac400	-0.061222076

conv2.weight f4 [2, 2, 2]
0	0x3e0e0240	0.13868046
1	0x3cca1020	0.024665892
2	0x3e3aff30	0.18261409
3	0xbe4786e4	-0.1948505
4	0xbd155130	-0.03645438
5	0xbd386040	-0.045013666
6	0x3d946c30	0.07247198
7	0xbb02e700	-0.0019974113
