crates/burn-store/src/pytorch/tests/reader/test_data/complex_structure.pt (torch, 3149 bytes, 6 tensors)

weight f4 [4, 3]
00000000: 4386 98bf 9aee c23f a91c 023f 22f2 14bf
00000010: 3cb7 b03f 0214 aebe 4d29 953b 0520 41bf
00000020: 1246 fbbe 9a76 343f 6490 c33f 04f3 a9be
-1.1915973 1.5229065 0.5082498 -0.58181965 1.3805919 -0.3399964 0.0045520426 -0.7543948
-0.49076897 0.7049347 1.527844 -0.3319322

bias f4 [4]
00000000: 3ecd d13f 7658 513f 375e f23f 98ce 97bd
1.639076 0.81775606 1.8935002 -0.074124515

weight f4 [2, 4]
00000000: 01f3 243e f1f8 383e 3a8e 2640 b051 703f
00000010: 9c90 c9bf ebad 113f e04d 44bf 450c 6cbf
0.16108324 0.18063714 2.6024308 0.93874645 -1.5747256 0.56906 -0.7668133 -0.9220622

bias f4 [2]
00000000: f8da c73f 7fe4 323f
1.5613699 0.6987991

weight f4 [3, 2]
00000000: 9cdc c43b 9d8b d3be 0837 973f cf39 493f
00000010: 02e5 2ebf 45cd db3e
0.006007744 -0.41317454 1.1813669 0.78603834 -0.6831819 0.42930046

bias f4 [3]
00000000: 164e 80bf 45ec e33e 4646 db3f
-1.002383 0.44516197 1.7130821
