crates/burn-store/src/pytorch/tests/reader/test_data/nested_dict.pt (torch, 2437 bytes, 4 tensors)

weight f4 [2, 3]
0	0x3c9ce229	0.01915081
1	0x3dd764f3	0.105173014
2	0x3f75d8da	0.96034014
3	0xbf1132bf	-0.5671806
4	0xbf1215f3	-0.5706474
5	0x3fcc8c86	1.5980384

bias f4 [2]
0	0x3de452e2	0.11148621
1	0xbd208cb8	-0.0391967

weight f4 [4, 2]
0	0x3fb4a0b1	1.4111539
1	0xbf27d61f	-0.655611
2	0x3f5b8c0c	0.8576057
3	0xbfd04255	-1.6270243
4	0xbfb293e8	-1.3951387
5	0xbe74741c	-0.23872417
6	0xbf01470d	-0.5049904
7	0xc01e6913	-2.4751632

bias f4 [4]
0	0xbf6e7d88	-0.93160295
1	0xbe08b0c8	-0.13348687
2	0x3eaed794	0.34148848
3	0xbd929404	-0.07157138
