crates/burn-store/src/pytorch/tests/reader/test_data/state_dict.pt (torch, 2363 bytes, 4 tensors)

weight f4 [3, 4]
00000000: fd90 ef3e acd9 51be 17ac 3dbf 0c43 b93e
00000010: 42bf f53f ffcb 66be f9f2 aebe 8fa7 9b3e
00000020: 3263 30bf 4f38 90bf 7c4e 92be 2bf8 8bbf
0.46790305 -0.20493191 -0.74090713 0.36183965 1.9198992 -0.22538756 -0.34169748 0.30401275
-0.6890136 -1.1267184 -0.28575504 -1.093511

bias f4 [3]
00000000: 084b 913f e55d 423f c70b 66c0
1.1351023 0.7592452 -3.5944688

running_mean f4 [3]
00000000: 0000 0000 0000 0000 0000 0000
0.0 0.0 0.0

running_var f4 [3]
00000000: 0000 803f 0000 803f 0000 803f
1.0 1.0 1.0
