crates/burn-import/src/pytorch/tests/reader/test_data/checkpoint.pt (torch, 3258 bytes, 5 tensors)

fc1.weight f4 [10, 5]
00000000: a14c 853f 7ea9 ccbe fec5 12c0 86c0 fe3e
00000010: 61f8 d9be a227 abbf f5f9 45be a613 273f
00000020: 86d0 9cbe 850a a9be e715 7bbf 3f68 473e
00000030: 93a6 d3bf 8171 2e3f f605 bb3f ee97 9ebe
00000040: 5f9d 763f c47a 9ebe 543a 123f af17 8f3f
00000050: 4ad5 a5bf 2dee 4d3d 1be2 15bf 9aad c7be
00000060: 8230 7b3f d7de 23bf 4a4f fbbe cc01 553e
00000070: 734c 94bf 93b2 76bf 91ff bfbe fba1 4d3f
00000080: e96e 373f a848 c43f 1fb9 713f 7a5f 3dbe
00000090: 44c8 873f 804d 553e d9ed 13bf e2a2 a63e
000000a0: 638b 50bf f6b7 82bf eff3 02c0 21c5 c3bf
000000b0: 054b cf3e a8c2 213f 4204 a03e 0d39 09bd
000000c0: 0bc6 cbbe 624d 8a3f
1.041401 -0.39973062 -2.2933345 0.4975626 -0.4257231 -1.337147 -0.19333632 0.65264356
-0.3062784 -0.33015838 -0.98080295 0.1947336 -1.653521 0.68141943 1.4611194 -0.30975288
0.9633388 -0.30953038 0.5712025 1.1179103 -1.2955716 0.05027597 -0.58548135 -0.38999635
0.9812089 -0.640119 -0.4908393 0.20801467 -1.158583 -0.9636623 -0.3749967 0.8032529
0.7165361 1.5334673 0.944231 -0.18493453 1.0607991 0.20830345 -0.577848 0.32546145
-0.8146269 -1.021239 -2.0461385 -1.5294534 0.40486923 0.63187647 0.31253248 -0.033501673
-0.39799532 1.0804865

fc1.bias f4 [10]
00000000: bc24 babd ef3c 14bf 96b7 59bf f1dc af3d
00000010: 448f 3e3e 70f7 2c3f bc68 063e cabb 943c
00000020: 36fd 0fc0 3f77 0640
-0.09089038 -0.5790548 -0.85045755 0.08587063 0.18609339 0.6756506 0.1312589 0.018155951
-2.2498298 2.1010282

fc2.weight f4 [3, 10]
00000000: 06fb 363e 9269 04be 7adb 6dbf e468 8d3e
00000010: b8f3 09bf 98d7 ec3e 2134 5fbf 2f27 debc
00000020: 02e5 ae3e 36ab 62be 12b2 a03f 5807 37bf
00000030: 779a 5a3f 6353 033f 7ec8 553f b1a4 a1be
00000040: 36c8 893e 4be8 ae3d f78c b0bf 9c34 203f
00000050: d46f 25c0 799a c4bc 0c21 063f 4ee8 89be
00000060: 5d3d cfbf 6bfd a43a 99b3 983f 39f9 f73f
00000070: f78c 3a3f db1b 7b3f
0.17869195 -0.12930897 -0.9291302 0.27619088 -0.5388751 0.46258235 -0.8718892 -0.027118294
0.34159094 -0.22135624 1.2554343 -0.7149558 0.85391945 0.51299113 0.8350905 -0.31570962
0.2691056 0.085404 -1.3793019 0.62580276 -2.5849504 -0.02399944 0.52394176 -0.26935047
-1.6190602 0.0012587731 1.1929809 1.9372932 0.72871345 0.9808938

fc2.bias f4 [3]
00000000: fdf3 b73f c64f e1be e3ca ff3e
1.4371334 -0.44006175 0.49959478

momentum_buffer f4 [10, 5]
00000000: cd29 793f 1aee 81bf 1cbb 0abf 03ce e1be
00000010: 8392 a0be 385b 04be c107 37bf 74d0 42bd
00000020: dd53 0140 ac01 823e 6fba 6f3f 2055 363f
00000030: 961c 02bd 1629 d03d 64f1 ab3f d698 363f
00000040: 43bf ce3e 49c7 36bf 446f 553f 3963 75bf
00000050: c042 e83e f17f 9f3f d69d 13c0 e1b8 a4bf
00000060: 2b34 383e e11c 08c0 324d 09be e837 85bf
00000070: e1c4 43bf f36f 62bd 8c38 9a3f 5f83 7bbf
00000080: 96eb dd3e cb99 37bf 4450 493f b23d 6dbd
00000090: fa10 113f ffb2 35bf 509a f9be 4b31 4d3d
000000a0: a994 a73e 2f52 043e 4883 adbd 07ce 8a3f
000000b0: c5a0 723f 9337 2dbf 3bb1 12bf 5e1f a9be
000000c0: e63f 9dbe bd2a 37bf
0.9732941 -1.0150788 -0.54191756 -0.44102487 -0.3136178 -0.12925422 -0.71496207 -0.047562078
2.0207436 0.253919 0.9364385 0.7122364 -0.031765543 0.101640865 1.3433042 0.7132696
0.40380296 -0.71397835 0.833729 -0.95854527 0.45363426 1.246092 -2.3065085 -1.286892
0.1798865 -2.1267626 -0.13408354 -1.0407686 -0.7647229 -0.055282544 1.2048507 -0.9824733
0.433438 -0.71719044 0.786381 -0.057920165 0.5666653 -0.7097625 -0.48750544 0.050095838
0.32730606 0.12921976 -0.084723055 1.0844125 0.94776565 -0.67662925 -0.5730168 -0.33031744
-0.30712813 -0.7154959
