crates/burn-import/safetensors-tests/tests/multi_layer/multi_layer.safetensors (safetensors, 17624 bytes, 8 tensors)

conv1.bias f4 [4]
000000 1c 15 07 3e ff 5a 23 3d 00 87 7d 3d ca 33 13 3e
       0.13191646 0.039881703 0.061896324 0.14375225

conv1.weight f4 [4, 3, 3, 3]
000000 af 15 cb 3d be f6 ad bd f7 d0 18 bd fc fe b8 3d
       0.09916245 -0.08494328 -0.03730866 0.090330094
000010 26 87 39 be 09 5f ec 3d 12 2b 22 bd e3 83 c8 3d
       -0.18117961 0.11541564 -0.039591856 0.097907804
000020 da 2a db 3c 1b 0a c1 bc 08 a3 5a 3d 54 8c 1b 3c
       0.026753832 -0.023564389 0.053378135 0.009493906
000030 42 f3 8f 3d 8c 98 99 bd 87 e3 65 bc c5 ee 8d bc
       0.070288196 -0.07499799 -0.0140312975 -0.017325768
000040 f5 82 e4 3c 8f 89 49 ba 65 45 2c 3e b7 4d 75 3d
       0.027894476 -0.00076880393 0.16823347 0.059888568
000050 85 c7 92 bd 43 0b ee bd 98 20 04 bd f6 01 aa bd
       -0.071669616 -0.11623242 -0.032257646 -0.08301155
000060 0c 9a 7c bd c0 f9 16 3c db f4 ea 3d 74 3a d6 3d
       -0.061670348 0.0092148185 0.11472484 0.10460368
000070 16 a5 40 be 87 55 f4 3d 39 37 5c 3d 47 ee 3a 3e
       -0.18812975 0.119303755 0.053763602 0.18254958
000080 c7 13 02 3e 91 8e 33 be f0 5f 3b be f6 1a be bd
       0.12702857 -0.17534854 -0.18298316 -0.09282486
000090 6b 0c 2d 3e 62 4d 03 bd cc ac a8 3d 0c 29 b7 bd
       0.16899268 -0.03205622 0.082360834 -0.08943376
0000a0 17 5e 41 3e 53 c2 a6 bd 6f c9 13 3e 0f 5a 15 3b
       0.18883549 -0.08142533 0.1443231 0.0022789275
0000b0 7f a3 cf bd b9 97 ca 3d 5e 37 d1 bd e6 d5 67 3d
       -0.10138606 0.0989222 -0.102156386 0.056600474
0000c0 c9 9e 63 bd 20 d8 ac bc ae 75 3d be ee ea bb bd
       -0.05557135 -0.02109915 -0.18501922 -0.09175669
0000d0 61 df d5 3d a4 9c 3f bd 56 4a 44 3e d8 f7 1d 3e
       0.10442997 -0.046780244 0.19168982 0.15426576
0000e0 c1 a3 13 bc 48 8a 03 be d7 03 f0 3d 9c a5 74 3d
       -0.00901121 -0.12845719 0.117194824 0.05972825
0000f0 49 c7 fe bd 4a 01 00 3e 21 48 ef 3d 87 c7 2e 3e
       -0.124403544 0.12500492 0.11683679 0.17068301
000100 0f f0 dc bd 3f c1 01 bd 6f 53 74 bb 61 44 e6 3c
       -0.10787975 -0.031678434 -0.0037281176 0.028108777
000110 27 8f 15 be 31 d8 0b be aa 69 d6 3d 22 d8 38 bd
       -0.1460539 -0.13656689 0.104693726 -0.045127995
000120 9d 86 c0 3d 17 c2 33 3c c1 69 81 3d 38 55 2d 3d
       0.094006754 0.010971568 0.06318999 0.0423176
000130 eb 4e 8f 3d da 60 c3 3d 04 82 36 be cc 63 c6 3d
       0.06997474 0.09539957 -0.17823035 0.096870035
000140 50 90 0a be b4 b0 14 be 04 c1 3f 3c ec 53 06 bd
       -0.13531613 -0.14520532 0.011703733 -0.032794878
000150 91 7c e7 3d 5e 42 e4 bd d1 30 2f be ac 6b 0f 3e
       0.11303056 -0.11145471 -0.17108466 0.14005917
000160 1c c6 e9 bc 86 af dd 3d 1e 6b 7d 3d f0 c6 13 be
       -0.028536849 0.10824494 0.061869733 -0.14431357
000170 fc 5c 1e 3d 52 57 3d 3d fe f2 03 be e9 01 bb bd
       0.038662896 0.046225853 -0.12885663 -0.09131224
000180 32 64 86 3d ac 32 0d 3d c9 a7 a7 bd a1 9f 6e bd
       0.065620795 0.034472153 -0.08186299 -0.058257703
000190 f3 7d 34 3e 07 d9 11 bd 2b 36 de 3d b5 a9 aa 3d
       0.17626171 -0.035607364 0.108501755 0.0833315
0001a0 02 c6 fe bd dc 97 27 be 09 2a 3d 3e 12 a5 24 3c
       -0.12440111 -0.16366524 0.18473066 0.010049121

fc1.bias f4 [16]
000000 c8 b6 8a bc 48 9d 57 bc 1c 6d ab 3c 0e 18 30 bd
       -0.01693286 -0.013160057 0.02092605 -0.04299169
000010 f0 0a 78 3d 54 23 6c bd e4 d7 78 3d 00 69 0b 3a
       0.060557306 -0.05765088 0.060752764 0.00053180754
000020 a8 35 c2 3c 00 4e ad 3c 1a 8b 5b bd ac 1f 66 bd
       0.023707226 0.021155357 -0.053599454 -0.05618255
000030 10 f9 21 3c 28 08 66 bc 58 48 e5 bc f8 74 de bc
       0.009886041 -0.014040031 -0.027988598 -0.027155384

fc1.weight f4 [16, 256]
000000 32 be 72 3d 72 e0 29 bd 98 07 00 3c b8 0a 3f 3d
       0.059263416 -0.041473813 0.0078143105 0.04664108
000010 94 74 39 3d 7c 09 1f 3d a4 45 39 bd c0 58 38 bd
       0.045277193 0.038827404 -0.04523243 -0.045006514
000020 50 d2 1a bd b8 a4 00 3c 6e 25 7f 3d 7e b5 21 bd
       -0.037798226 0.007851772 0.062291555 -0.039479725
000030 e2 6a 08 3d 66 b1 0d bd fa b1 70 bd 00 a4 59 bc
       0.033305056 -0.03459301 -0.05876348 -0.01328373
000040 f0 7f 13 3d fa a9 6d 3d 66 fc 1e bd 30 38 5e 3c
       0.036010683 0.05802343 -0.038814925 0.013563201
000050 68 e4 5c 3d aa a3 29 3d 8c 8b 1f 3d 04 ec 35 3d
       0.053928763 0.041415848 0.03895144 0.044414535
000060 98 ec 21 3d 6c 3f 84 3c d6 0e 2f bd 6a fa 56 bd
       0.039532274 0.016143523 -0.042738758 -0.052484907
000070 e4 9b ea bc 30 7b ee bb 70 ea 1c bd 2c 51 bb 3c
       -0.028638788 -0.0072778687 -0.038309515 0.022865854
000080 30 75 9e 3c a8 de 67 bc 50 c8 c4 3c 78 78 a5 3c
       0.019342989 -0.0141522065 0.024021298 0.020199046
000090 48 4c 1c 3d ce 66 2c 3d e4 63 ad bc 5a 1e 7a 3d
       0.038158685 0.04209023 -0.021165796 0.0610641
0000a0 c0 c3 ec bb e0 b8 0c bb 20 a2 71 bd 08 c4 24 bd
       -0.0072254837 -0.0021472499 -0.058992505 -0.040226012
0000b0 5c 8e 15 bd 80 fe da bc 1a 02 36 3d d8 4f a7 bc
       -0.036512718 -0.026732683 0.044435598 -0.020423815
0000c0 d2 4d 3f bd f0 fd c4 3c 44 ed a3 3c 0e cf 25 3d
       -0.046705075 0.024046868 0.020010598 0.040480666
0000d0 0e 79 04 bd c0 04 5e 3c d8 64 ba bc 20 11 66 bc
       -0.03234201 0.013550937 -0.022753164 -0.014042169
0000e0 d8 02 4c bd 80 59 e9 bc d0 cd 9c bc 04 f3 da 3c
       -0.0498074 -0.02848506 -0.019141108 0.026727207
0000f0 f0 12 3b 3c e0 f1 7c 3c d2 83 7f 3d 30 81 79 3d
       0.011418089 0.015438527 0.062381573 0.06091422
000100 a4 9a 2e 3d 60 6e 02 3b 3e 19 31 bd 04 11 48 3d
       0.042627946 0.0019902214 -0.043236963 0.048844352
000110 50 08 80 bc 40 92 a5 bb 32 8b 5c bd f0 44 4a bc
       -0.015628964 -0.0050528347 -0.053843684 -0.012345538
000120 ec 1d 25 bd 6c 3d 6b 3d 40 51 5d bd 2e 8c 47 bd
       -0.04031174 0.057431623 -0.054032564 -0.04871767
000130 c0 15 0b bb 54 6c 0a bd 18 33 b7 3c f8 14 c5 bc
       -0.002122268 -0.033794716 0.02236323 -0.02405785
000140 e4 7a f0 bc e0 fc 67 3b 60 51 39 3d 94 13 34 bd
       -0.029355474 0.0035398528 0.04524362 -0.043963984
000150 3c 70 f0 3c 0a 77 24 3d 22 6b 7a 3d ac 2e 33 bd
       0.029350393 0.040152587 0.061137326 -0.04374568
000160 a0 00 78 3c 14 4b 3d bd 60 8f 5a 3d a8 9b c6 bc
       0.015136868 -0.04621418 0.05335939 -0.024244145
000170 ca 33 1a 3d 40 e3 f3 3a f0 80 9f bb c0 b1 02 bb
       0.037647046 0.0018607154 -0.0048676655 -0.0019942373
000180 08 13 2e 3c d4 5a f1 3c a0 3a 24 3c 28 30 9c 3c
       0.010624655 0.029462256 0.010023743 0.019065931
000190 40 47 66 bd 6e 81 3a 3d 7a 32 5f 3d 70 9c 53 3d
       -0.056220293 0.04553359 0.054491498 0.051662862
0001a0 b2 3d 3d 3d d6 bc 38 bd 64 cc bd bc c0 b8 61 3d
       0.046201415 -0.045101963 -0.02316875 0.055107832
0001b0 0e fc 42 bd a6 3f 68 3d ce 57 49 bd 1e 54 34 bd
       -0.04760366 0.056701325 -0.049156003 -0.044025533
0001c0 38 4e fa 3c e6 ee 37 bd 60 99 6a bc e8 3c 3a 3d
       0.030554876 -0.044905566 -0.014318794 0.04546824
0001d0 56 c6 4a 3d 0c 1d 72 3d 98 c9 4f bc 90 fa 46 bd
       0.049505554 0.059109733 -0.012682341 -0.0485788
0001e0 76 0f 7c 3d 88 23 5a bc a0 a7 d2 bc d8 9f 79 3c
       0.061538182 -0.013314135 -0.025714695 0.015235864
0001f0 ee 06 33 bd 84 43 28 3d 8e 71 20 3d 96 21 4b bd
       -0.04370778 0.041080013 0.039170794 -0.049592577
000200 76 45 52 bd c0 65 b3 bb 94 0d d7 3c 00 42 ed ba
       -0.051335774 -0.005474776 0.026251592 -0.0018101335
000210 d6 cf 01 bd 00 4a bb 3a 66 9f 70 bd 4a ee 34 bd
       -0.03169235 0.0014289021 -0.058745764 -0.044172563
000220 9e 6a 2a bd e2 d2 52 3d 5e aa 61 3d cc e8 ad bc
       -0.041605584 0.051470645 0.055094115 -0.02122917
000230 00 b5 37 3b 38 57 e4 3c d0 62 f5 3b 52 31 00 bd
       0.0028031468 0.02787362 0.007488586 -0.031297036
000240 20 a5 13 3d 38 5f 1d 3d c0 62 6d bb 30 1d fc bb
       0.036046147 0.038420886 -0.003622219 -0.007693909
000250 86 a3 68 3d e8 c6 5f 3d 7c 25 11 bd 9c 77 7a 3d
       0.056796573 0.05463305 -0.03543614 0.061149225
000260 70 69 7d 3c 00 0d 2a bd 3a 23 0c 3d 82 1f 3f bd
       0.015467033 -0.041516304 0.034213282 -0.046660908
000270 96 86 6c 3d ba 93 24 bd d4 ce 90 3c 74 e7 9b 3c
       0.05774554 -0.040179946 0.017676748 0.019031264
000280 08 91 73 3c 04 55 54 3d b0 a8 d4 bc b4 26 d8 bc
       0.014866121 0.05183889 -0.025959343 -0.026385643
000290 a0 d7 5d bd 40 19 28 bb 80 8b f2 bc a0 1f 24 3b
       -0.054160714 -0.0025649816 -0.029607534 0.0025043264
0002a0 20 eb 51 bc dc e0 a9 3c a4 75 5d 3d 7c 14 97 3c
       -0.012812406 0.020737104 0.05406727 0.018442385
0002b0 90 ef a4 bc 88 3c fb bc 6c 45 5f bd 10 69 57 3d
       -0.020133764 -0.030668512 -0.054509565 0.05259043
0002c0 98 fc 41 bc 18 b3 4e 3c 00 84 17 3b f0 23 23 bd
       -0.011840008 0.012615941 0.002311945 -0.039829195
0002d0 a8 2c 10 3d 9a 77 0f 3d 40 46 4e 3b 62 7b 11 bd
       0.035198838 0.03502617 0.0031474978 -0.035518058
0002e0 5c 8d d9 bc 00 a0 61 3a 28 43 12 bd 5a d6 0e bd
       -0.026556663 0.00086069107 -0.035708576 -0.03487239
0002f0 40 bf 18 bc 3c 6e 93 bc 50 5f 7b 3c b0 93 86 bc
       -0.009322941 -0.0179969 0.0153425485 -0.016427845
000300 a0 be 07 bc c4 6b c3 bc c4 f2 69 bd b6 43 5f 3d
       -0.008285195 -0.023855098 -0.057116285 0.054507934
000310 70 5c 43 3c e6 eb 64 3d 68 07 25 bc 14 ac 80 bc
       0.011923894 0.055889033 -0.010072567 -0.015707053
000320 cc aa 70 bd 54 5c c2 bc ac e0 27 3d f2 bc 7a bd
       -0.058756635 -0.023725666 0.04098575 -0.06121535
000330 74 14 b3 bc 6a f8 1b 3d 5e 8b 13 3d b8 0d bd 3c
       -0.021860339 0.038078703 0.036021583 0.02307783
000340 20 b2 4a bc d0 10 9b bb f0 76 42 bc 70 be bc bc
       -0.01237157 -0.004732229 -0.011869177 -0.023040026
000350 90 ab d5 3c 80 63 ae bc da d0 0f bd 18 4e 68 3c
       0.026082784 -0.02128768 -0.035111286 0.014178775
000360 d0 09 39 bd 68 89 5a bc ca d1 02 3d 78 59 bf 3c
       -0.045175374 -0.013338424 0.03193835 0.023358092
000370 4c f1 59 3d a2 9a 2e bd 80 73 0e 3a ec 31 97 bc
       0.053208634 -0.042627938 0.0005434081 -0.018456422
000380 62 2f 0f bd 82 03 10 bd c4 fd 80 3c 70 45 d6 3b
       -0.034957297 -0.035159595 0.015746005 0.0065390393
000390 c0 ac 02 bd ac 71 34 bd 6c 1a 54 bd 84 e5 7a 3d
       -0.03190303 -0.04405372 -0.05178301 0.06125404
0003a0 40 89 2e bc f0 c8 6c bc 88 45 bc bc de 0a 00 bd
       -0.01065284 -0.014452204 -0.022982374 -0.031260364
0003b0 78 1d 6a bd 80 49 16 bd 78 79 1c 3d a0 6f 60 3c
       -0.05715701 -0.03669119 0.03820178 0.0136984885
0003c0 c8 9c b4 bc bc 7d c1 bc 4e 89 23 3d 46 89 38 3d
       -0.022047415 -0.023619525 0.039925866 0.04505279
0003d0 a2 a3 76 3d 70 5a 95 3c 58 5a f7 3c a0 8d a4 bb
       0.060214646 0.0182316 0.030194446 -0.005021766
0003e0 ae aa 15 bd 6c cc 7a bd 9a ed 1b 3d d0 d5 14 bc
       -0.036539726 -0.06123011 0.03806839 -0.00908418
0003f0 64 5a d2 3c c0 9c 49 3b 20 ee 6e bd 40 2f fb bc
       0.025677867 0.0030763596 -0.058332562 -0.030662179

norm1.bias f4 [4]
000000 00 00 00 00 00 00 00 00 00 00 00 00 00 00 00 00
       0.0 0.0 0.0 0.0

norm1.running_mean f4 [4]
000000 d2 41 8a 3c 36 1f 90 3b 68 ab 56 3d d7 95 d8 3a
       0.016877089 0.004398252 0.05240956 0.0016524148

norm1.running_var f4 [4]
000000 27 a0 66 3f bb 40 67 3f 59 48 67 3f fc 36 67 3f
       0.90088123 0.90333146 0.9034477 0.90318274

norm1.weight f4 [4]
000000 00 00 80 3f 00 00 80 3f 00 00 80 3f 00 00 80 3f
       1.0 1.0 1.0 1.0
