crates/burn-import/pytorch-tests/tests/non_contiguous_indexes/non_contiguous_indexes.pt (torch, 4746 bytes, 10 tensors)

fc.0.weight f4 [2, 2, 3, 3]
000000 19 ba f8 3d b3 0f d5 bd 34 29 3b bd ac 92 e2 3d
       0.1214487 -0.10403385 -0.04569359 0.11063132
000010 71 39 63 be 4a bf 10 3e 5e 9d 46 bd 77 94 f5 3d
       -0.22189881 0.14135471 -0.04848992 0.11991208
000020 4a 36 06 3d 92 6c ec bc 1e e3 85 3d bf 81 3e 3c
       0.032766618 -0.028860364 0.0653746 0.011627614
000030 63 4d b0 3d a4 1d bc bd 0d c7 8c bc d3 d4 ad bc
       0.0860851 -0.09185341 -0.017184759 -0.021219647
000040 26 ef 0b 3d f3 d4 76 ba f5 fc 52 3e 97 37 96 3d
       0.034163617 -0.0009415887 0.20604308 0.07334822
000050 6d c4 b3 bd 86 c5 11 be 80 d2 21 bd 4d 37 d0 bd
       -0.087776996 -0.14235505 -0.03950739 -0.10166798
000060 b4 af 9a bd 16 e8 38 3c 80 e1 0f 3e 02 30 03 3e
       -0.07553044 0.011285802 0.14050865 0.12811282
000070 d9 f0 6b be 9b 9f 15 3e a2 da 86 3d 48 f1 64 3e
       -0.23041095 0.14611666 0.0658467 0.22357666
000080 bb 4f 1f 3e 51 e9 5b be 7d 7c 65 be 9c d4 e8 bd
       0.15557759 -0.21475722 -0.2241077 -0.11368677

fc.0.bias f4 [2]
000000 b5 f0 53 3e d1 cf 20 bd
       0.20697291 -0.03926069

fc.2.weight f4 [2, 2, 3, 3]
000000 76 95 ce 3d 1e 53 e0 bd 6e d3 6c 3e c2 3c cc bd
       0.10087101 -0.10953353 0.23127529 -0.09972526
000010 4d 00 35 3e f8 ea 36 3b ec 4d fe bd d4 1f f8 3d
       0.17675896 0.0027911048 -0.12417206 0.12115446
000020 47 1e 00 be 3e f8 8d 3d 6c 63 8b bd aa b0 d3 bc
       -0.1251155 0.06932114 -0.068060726 -0.025841076
000030 2f 0a 68 be b7 26 e6 bd 3c f8 02 3e f9 ac 6a bd
       -0.22660135 -0.11237853 0.12790006 -0.057293866
000040 d8 67 70 3e 7e 78 41 3e 28 d2 34 bc 67 1a 21 be
       0.23477113 0.1889362 -0.011036433 -0.15732728
000050 84 fa 12 3e a6 d0 95 3d f1 04 1c be 05 c6 1c 3e
       0.14353377 0.07315187 -0.1523626 0.15309913
000060 91 87 12 3e 68 0f 56 3e d2 4b 07 be a7 ea 1e bd
       0.14309527 0.20904315 -0.13212517 -0.038798
000070 53 9e 95 bb 5c 02 0d 3d fe 2b 37 be 1a 46 2b be
       -0.004565993 0.03442608 -0.17887875 -0.1672596
000080 eb 4c 03 3e 17 63 62 bd 87 cb eb 3d 6b 28 5c 3c
       0.1282231 -0.05527028 0.11513429 0.013437371

fc.2.bias f4 [2]
000000 7f 7f 9e 3d df 49 54 3d
       0.07739162 0.05182826

fc.4.weight f4 [2, 2, 3, 3]
000000 1d 84 af 3d e2 49 ef 3d 8d 86 5f be 18 fa f2 3d
       0.085701205 0.11684014 -0.21828671 0.11864108
000010 88 b4 29 be 8d 1b 36 be 85 d9 6a 3c 6e 84 24 bd
       -0.16572773 -0.17783947 0.014334087 -0.040165357
000020 8a c1 0d 3e 98 c7 0b be 5b 90 56 be 54 a7 2f 3e
       0.1384336 -0.13650358 -0.20953505 0.17153674
000030 1b 28 0f bd 12 c1 07 3e bc 2f 9b 3d 3f fd 34 be
       -0.034950357 0.13257244 0.07577464 -0.1767473
000040 5c f4 41 3d 01 e5 67 3d a5 9a 21 be 53 09 e5 bd
       0.04735218 0.05661488 -0.15781648 -0.11183419
000050 5c 98 a4 3d 74 ee 2c 3d ca 55 cd bd 61 20 92 bd
       0.08036873 0.042219594 -0.100261286 -0.07135082
000060 80 0e 5d 3e 55 a0 32 bd 85 13 08 3e bf 04 d1 3d
       0.21587563 -0.043609936 0.13288696 0.10205983
000070 29 04 1c be 49 42 4d be 8a ad 67 3e dc a5 49 3c
       -0.15235962 -0.20044817 0.22624794 0.01230761
000080 0a 71 25 3e 9a 11 48 3d cf 40 9b 3d 07 49 34 3e
       0.16156402 0.04884491 0.07580721 0.17605983

fc.4.bias f4 [2]
000000 39 dc 64 3e 4d 29 20 be
       0.22349633 -0.15640755

fc.6.weight f4 [2, 2, 3, 3]
000000 41 6a f1 3c b2 1d 34 3e 59 d9 2e 3e 0b f1 15 3e
       0.029469611 0.17589453 0.17075099 0.14642732
000010 18 ad 2e be c0 cd 2d be 97 f7 11 be 88 92 f2 3c
       -0.17058218 -0.16973019 -0.14254604 0.029610887
000020 dd 8d 70 3e ee 75 18 be 9c 9d 00 3e e3 96 05 be
       0.23491617 -0.14888737 0.12560123 -0.1304584
000030 fc ed 62 be 8c 31 4d bd 69 10 0b 3e 5e 12 60 3e
       -0.22161096 -0.05009608 0.13580479 0.21882007
000040 b4 e4 15 be b3 82 51 3d 59 42 50 3e ff ef 1f 3e
       -0.14638025 0.051150035 0.2033781 0.15618895
000050 aa 6b 16 3e 85 84 2b 3e e1 a9 18 3e 65 5e 79 3d
       0.14689508 0.16749771 0.14908554 0.060881037
000060 d5 0b 25 be f2 ae 4a be 02 31 dd bd 9d d7 e0 bc
       -0.16117795 -0.19793299 -0.10800363 -0.027446562
000070 0d f1 13 be af 9a b0 3d 3a 65 95 3d e1 9b 5a bd
       -0.14447422 0.086232536 0.07294698 -0.053371314
000080 3e 87 b9 3d d5 01 9c 3d f1 5b 13 3e b1 8a 22 3e
       0.090589985 0.07617537 0.14390542 0.15873219

fc.6.bias f4 [2]
000000 4e 79 a3 bd 65 d0 6b 3e
       -0.079821214 0.23028715

fc.8.weight f4 [2, 2, 3, 3]
000000 4e 39 df bc 94 ac 04 bc 66 d0 63 be b7 57 1b be
       -0.027249005 -0.008097786 -0.22247466 -0.1517018
000010 ba 00 0d be 3b 78 ce bd 57 99 2b 3e 40 be 9d bd
       -0.13769808 -0.10081526 0.16757713 -0.07702303
000020 f6 5c 34 be cd b9 b9 3d 3b 8d 9a 3d 78 53 1c 3e
       -0.17613587 0.09068642 0.07546469 0.15266216
000030 12 cb f9 bd 34 52 51 3d df bb af bd be e8 58 bd
       -0.12196936 0.051103786 -0.085807554 -0.052956335
000040 f1 57 40 be 0e 01 dc bd 10 d6 93 bd 68 6d ce 3d
       -0.18783547 -0.10742389 -0.072185636 0.10079461
000050 02 60 30 3d 8a 7a 6e 3d db e6 70 3e 38 3c 6b 3e
       0.04306031 0.05822233 0.23525564 0.2297219
000060 48 9e 24 3e 7f f1 f5 3b 5d f8 26 be de 9f 3c 3e
       0.16076005 0.007505595 -0.1630568 0.1842036
000070 9c 6b 71 bd 24 1a 9c bc 3d ee 4f be 89 b3 3e bd
       -0.058940515 -0.019055434 -0.20305724 -0.046557937
000080 77 ac 1b be 4d c9 5d 3e f8 a8 50 be a0 22 3c be
       -0.15202509 0.21658821 -0.20376956 -0.18372583

fc.8.bias f4 [2]
000000 6c 21 03 bc b1 81 02 be
       -0.008003574 -0.12744786
