crates/burn-import/pytorch-tests/tests/embedding/embedding.pt (torch, 1382 bytes, 1 tensors)

embed.weight f4 [10, 3]
0	0xbfc346ba	-1.5255959
1	0xbf400f31	-0.7502318
2	0xbf276b4b	-0.6539809
3	0xbfce039a	-1.6094849
4	0xbdcd2473	-0.10016718
5	0xbf1bf3ce	-0.6091889
6	0xbf7ad25b	-0.97977227
7	0xbfcdf6de	-1.6090963
8	0xbf364f1c	-0.7121446
9	0x3e9b8173	0.303722
10	0xbf46fe12	-0.7773143
11	0xbe80beb1	-0.25145486
12	0xbe639ae0	-0.22227049
13	0x3fd7f355	1.6871134
14	0xbea4286a	-0.32062083
15	0xbe9943d8	-0.29934573
16	0x3ff08e66	1.8793457
17	0xbd93b9d4	-0.07213178
18	0x3e218e9e	0.1577706
19	0xbf460125	-0.77345496
20	0x3e4bd578	0.1990565
21	0x3d3b3251	0.045702282
22	0xbfb239b3	-1.3923858
23	0x402c1a00	2.689087
24	0xbde35ed5	-0.11102072
25	0x3e95e165	0.29273525
26	0xbe21a229	-0.15784515
27	0xbcebd303	-0.028787142
28	0x4016dae8	2.357111
29	0xbf84c784	-1.0373387
