crates/burn-onnx/onnx-tests/tests/lstm/lstm_with_initial_state.onnx (onnx, 2378 bytes, 3 tensors)

onnx::LSTM_89 f4 [1, 32, 4]
0	0x3e8a6571	0.2703052
1	0x3e963f5b	0.2934521
2	0xbda9a1a3	-0.08282783
3	0x3ea64952	0.32477814
4	0xbd9ea5df	-0.07746481
5	0x3d921cb0	0.07134378
6	0xbe3042a6	-0.17212924
7	0x3e549e79	0.20763578
8	0x3e9f9389	0.31167248
9	0xbe84cd06	-0.2593767
10	0x3e9d5760	0.30730724
11	0x3d87848f	0.066170804
12	0x3e85bd1b	0.2612084
13	0x3d441fda	0.04788194
14	0x3e2e921c	0.17047924
15	0xbd4c7767	-0.04991856
16	0x3e8b8b95	0.2725493
17	0x3d560cd7	0.05225834
18	0xbe29039c	-0.16505283
19	0x3db890eb	0.09012016
20	0xbe26cdf2	-0.162895
21	0xbd29d448	-0.041462213
22	0xbe130b86	-0.14359865
23	0x3e702a7b	0.23453705
24	0xbe8ee42a	-0.2790845
25	0xbe26e750	-0.16299176
26	0xbdcc760e	-0.09983455
27	0xbe59af13	-0.21258192
28	0x3d08ae6d	0.03336947
29	0xbeb2c9fd	-0.3491973
30	0x3ea37aef	0.31929728
31	0xbe99c52a	-0.30033237
32	0x3ea5c0a5	0.3237354
33	0xbdf453c5	-0.1193004
34	0xbe005940	-0.12534046
35	0xbeaf2741	-0.34209636
36	0xbe4f542a	-0.2024695
37	0x3db4e08e	0.08831893
38	0xbd3f2583	-0.046666633
39	0xbe83663f	-0.25663945
40	0x3c07e02c	0.008293193
41	0xbe774d4a	-0.24150577
42	0xbe999382	-0.29995352
43	0xbe475c75	-0.19468863
44	0xbe9e6e29	-0.3094342
45	0xbe668618	-0.2251209
46	0x3eb4f2d3	0.3534151
47	0x3d88c294	0.06677738
48	0x3ddf21a7	0.108950906
49	0xbea8d57a	-0.3297537
50	0xbe6dc70b	-0.2322046
51	0xbdf1036b	-0.1176823
52	0x3d627316	0.055285536
53	0xbe9f4864	-0.31109917
54	0xbe1bfe22	-0.15233663
55	0xbe58bdbd	-0.2116613
56	0x3a806c39	0.0009797878
57	0xbe06b73b	-0.13155834
58	0xbcc8b3b4	-0.024499752
59	0xbe755402	-0.23957828
60	0xbe788068	-0.24267733
61	0xbe5336c9	-0.20626368
62	0xbdf7d98d	-0.121020414
63	0xbe8ee007	-0.27905294
64	0x3e8bc07b	0.27295288
65	0x3d71002c	0.058838055
66	0xbdeb1c77	-0.114800386
67	0x3e5fb8c7	0.2184783
68	0x3d61b22e	0.055101566
69	0x3e9241ca	0.28565818
70	0x3d1e4fd3	0.038650345
71	0xbde45ac5	-0.111501254
72	0x3dc28c3a	0.09499402
73	0xbdc45ada	-0.09587641
74	0x3e185de0	0.1487956
75	0x3ea19e3a	0.3156603
76	0x3e5147a8	0.20437491
77	0xbe1e45fb	-0.15456383
78	0x3e50fdfc	0.20409387
79	0x3d818e72	0.063259974
80	0x3e37db1d	0.17954679
81	0xbe5caa16	-0.21549258
82	0xbeb3314c	-0.34998548
83	0xbe0be0a1	-0.13659908
84	0xbe8ad891	-0.27118352
85	0x3e94888d	0.2901043
86	0x3dd08e95	0.10183445
87	0x3e15f619	0.1464466
88	0x3de4ff5f	0.11181521
89	0xbbc98957	-0.0061504054
90	0x3e8daacf	0.2766938
91	0xbe809de0	-0.2512045
92	0x3cb65cc8	0.022261038
93	0xbe771b1f	-0.2413144
94	0x3ddf454c	0.10901889
95	0xbdf95c02	-0.12175752
96	0x3dddde7c	0.10833451
97	0xbd96daf8	-0.07365984
98	0x3e9622ce	0.2932343
99	0xbe5694bd	-0.20955177
100	0xbe57eb4c	-0.21085852
101	0xbe57eea3	-0.21087126
102	0x3ea2d108	0.31800103
103	0x3df14cb1	0.11782206
104	0x3eae2f9c	0.34020698
105	0xbe956416	-0.29177922
106	0xbeb38c7b	-0.35068116
107	0xbe8d9f7b	-0.27660736
108	0xbe738a1a	-0.2378315
109	0x3e12a3e4	0.14320332
110	0x3e01a326	0.12659892
111	0x3e9669d3	0.29377612
112	0xbe3af749	-0.18258394
113	0xbe76ce58	-0.24102151
114	0x3e4016fd	0.1875877
115	0xbe125670	-0.14290786
116	0x3e5bbada	0.21457997
117	0xbdabd2f2	-0.08389844
118	0x3e4f1a4d	0.20224877
119	0xbe8ca56f	-0.27469966
120	0xbe36b3e6	-0.17842063
121	0x3ddcc10e	0.1077901
122	0x3d99134e	0.07474385
123	0xbdb89c1f	-0.09014153
124	0x3e57ccd9	0.21074237
125	0x3e761e02	0.24034885
126	0xbe834539	-0.2563875
127	0xbe4147eb	-0.18875091

onnx::LSTM_90 f4 [1, 32, 8]
0	0x3e97c77d	0.29644385
1	0xbd8fb40c	-0.07016763
2	0x3e9bbf9a	0.30419618
3	0x3de19c0a	0.1101609
4	0xbe994960	-0.29938793
5	0x3e7a8b23	0.24467139
6	0xbdc739e3	-0.09727838
7	0xbe0ac763	-0.13552622
8	0xbe964241	-0.29347423
9	0xbeb3f659	-0.35148886
10	0x3dcf2a8e	0.101155385
11	0xbd9e2b96	-0.07723157
12	0x3e0cf335	0.13764651
13	0xbe948e53	-0.29014835
14	0x3e8664df	0.26248834
15	0xbe84e0bf	-0.25952718
16	0xbd7a0ec6	-0.061049245
17	0x3d973ce1	0.073846586
18	0x3e3ae732	0.18252257
19	0x3e922387	0.2854273
20	0x3ea4e6b7	0.3220727
21	0xbe8f88c4	-0.2803403
22	0x3db63a00	0.08897781
23	0xbe1bb8e4	-0.15207249
24	0xbd1eb21d	-0.03874408
25	0xbe877dbe	-0.2646312
26	0x3ea4e20e	0.32203716
27	0xbe84dbf6	-0.25949067
28	0x3e417df5	0.18895705
29	0x3dfe782e	0.12425266
30	0x3deb4b11	0.11488927
31	0xbe43bc1e	-0.1911473
32	0x3ea489ad	0.32136288
33	0x3d9f1dc5	0.0776935
34	0x3d3a4a6b	0.045481127
35	0xbe9f862f	-0.3115706
36	0x3e17facb	0.14841764
37	0xbd5940c7	-0.053040292
38	0xbe25dbd4	-0.16197139
39	0x3e9b7c66	0.30368346
40	0x3da16ea2	0.0788243
41	0xbe484eb5	-0.19561274
42	0xbe373deb	-0.17894714
43	0xbc8a50ba	-0.016884197
44	0x3e4a25fc	0.19741052
45	0xbdb906b8	-0.090344846
46	0xbe4e91f7	-0.20172869
47	0xbdf7f483	-0.12107184
48	0xbe873c28	-0.26413083
49	0x3e011d60	0.12608862
50	0x3e8c1dc2	0.27366453
51	0xbeaa6b3d	-0.3328494
52	0x3da82adf	0.08211302
53	0x3e3b06b5	0.18264277
54	0x3d834be7	0.064109616
55	0xbe00ee4f	-0.12590908
56	0x3e3cf697	0.18453442
57	0x3e3e418f	0.18579696
58	0x3e076049	0.13220324
59	0xbd7e78c6	-0.062126897
60	0xbdbfbc91	-0.09362138
61	0x3d1aecc7	0.037823465
62	0xbd7fd28d	-0.062456656
63	0xbdd7c69b	-0.10535928
64	0xbe7ba12c	-0.24573201
65	0xbd95373c	-0.07285926
66	0x3e860f5b	0.2618359
67	0x3e3998fd	0.18124767
68	0xbe651816	-0.2237247
69	0xbe91281d	-0.28350917
70	0xbe776771	-0.24160554
71	0xbeb2a4d9	-0.34891394
72	0xbe8bae7c	-0.2728156
73	0xbdb30ffc	-0.08743283
74	0x3e7454e6	0.23860511
75	0x3d726537	0.059178557
76	0xbe89af2e	-0.26891464
77	0xbe9137d1	-0.28362897
78	0x3e341af4	0.17588407
79	0xbe86a650	-0.2629876
80	0xbd324ebf	-0.04353213
81	0x3e2dac11	0.1696017
82	0xbe278e4d	-0.16362877
83	0xbd1de81a	-0.038551427
84	0xbcfc1b94	-0.030774869
85	0xbdab4dfd	-0.083644845
86	0xbe3790b4	-0.17926294
87	0xbea15e1a	-0.31517106
88	0xbe925408	-0.28579736
89	0xbe41db9b	-0.18931429
90	0x3eaed5d6	0.3414752
91	0xbe2edeb8	-0.17077148
92	0xbe731e7d	-0.23742099
93	0x3daf831c	0.08569929
94	0x3dc7902d	0.09744296
95	0x3e465d51	0.19371535
96	0x3e8998b3	0.26874313
97	0x3e499c27	0.19688474
98	0xbeb37b19	-0.35054854
99	0x3d006f51	0.03135616
100	0x3e5b4e58	0.21416605
101	0xbd05d8ac	-0.032677338
102	0xbe555783	-0.20834164
103	0x3eac92ac	0.33705652
104	0xbe07699c	-0.1322388
105	0xbe4e1fee	-0.20129368
106	0xbea332eb	-0.31874785
107	0x3c815f8e	0.015792634
108	0x3e206e6b	0.15667121
109	0x3da048a8	0.07826358
110	0x3d8f2fa4	0.069915086
111	0xbe894865	-0.26813045
112	0xbea90d39	-0.330179
113	0x3bcc0233	0.006225848
114	0x3ea50f42	0.32238203
115	0x3e50de2a	0.20397249
116	0xbe52ca94	-0.2058509
117	0xbd3bfb9c	-0.04589425
118	0xbe8571c9	-0.26063374
119	0xbe2ea7eb	-0.17056243
120	0x3d832114	0.064027935
121	0x3e4524dd	0.19252343
122	0x3e95f36b	0.29287276
123	0xbea631e8	-0.3245995
124	0x3e721087	0.23639117
125	0xbe7f57d0	-0.24935842
126	0x3e079256	0.13239416
127	0x3e992fcf	0.29919288
128	0x3e676ae8	0.22599375
129	0x3e9b9164	0.30384362
130	0xbd0f5d0d	-0.03500085
131	0xbda21e5f	-0.07915949
132	0x3ba90e1e	0.0051591536
133	0xbcaceefc	-0.02111005
134	0x3dae138c	0.08499822
135	0x3dcae92b	0.099077545
136	0xbea4697b	-0.32111725
137	0xbe059b1e	-0.13047454
138	0x3e987114	0.29773772
139	0x3e0d08b2	0.13772848
140	0xbc900e2e	-0.017584886
141	0xbe5a4673	-0.21315937
142	0xbe5d7f42	-0.21630576
143	0xbea226b0	-0.3167014
144	0xbdec05a2	-0.11524512
145	0x3df48621	0.119396456
146	0x3e66d7fc	0.22543329
147	0x3e2726fc	0.16323465
148	0xbea002ce	-0.3125214
149	0xbe59b76a	-0.21261373
150	0xbd648afd	-0.055796612
151	0x3eaf1be5	0.3420097
152	0x3d517c86	0.051144145
153	0xbdbb83cd	-0.091559984
154	0x3e15c7ea	0.14627042
155	0xbe09e4d3	-0.13466196
156	0xbe6a54e2	-0.22883943
157	0x3e841fab	0.2580541
158	0xbe249ea0	-0.16076136
159	0xbd912747	-0.0708757
160	0xbeb4142d	-0.35171643
161	0x3e724d46	0.2366229
162	0x3e892582	0.2678643
163	0x3e03f1c0	0.12885189
164	0xbe7c70b3	-0.24652366
165	0xbeb2a7bb	-0.34893593
166	0xbe930525	-0.28714862
167	0x3e86fc75	0.26364484
168	0x3e2dd11d	0.16974302
169	0x3e98541d	0.29751673
170	0x3e3da941	0.18521596
171	0x3db74220	0.08948159
172	0xbb62e6b3	-0.003462237
173	0xbe89aa92	-0.26887947
174	0xbe9b17a3	-0.3029147
175	0xbea950f2	-0.3306957
176	0x3e143472	0.14473131
177	0xbe31bfd8	-0.17358339
178	0xbd91b8f1	-0.07115353
179	0xbe505aeb	-0.20347182
180	0xbd83f1a7	-0.06442576
181	0xbe7ed0c1	-0.24884321
182	0xbe6c8fce	-0.23101732
183	0x3df02f2d	0.11727748
184	0xbdd73173	-0.105074786
185	0x3e5f808a	0.21826378
186	0xbde84a55	-0.11342303
187	0xbe84ca34	-0.2593552
188	0xbd7f82c7	-0.06238058
189	0xbe2f7f4f	-0.17138408
190	0xbddd867e	-0.10816668
191	0xbeac5461	-0.33658126
192	0x3e4a8eae	0.1978099
193	0xbe7c0d8f	-0.24614547
194	0x3e35f790	0.17770219
195	0x3e244995	0.16043694
196	0x3e81537d	0.2525901
197	0xbe8ad9ec	-0.27119386
198	0x3e823043	0.25427446
199	0xbe2b2784	-0.16714293
200	0x3e065766	0.13119277
201	0x3ea9ff77	0.33202717
202	0xbd4c3c67	-0.04986229
203	0xbb333023	-0.0027341924
204	0xbda6b46a	-0.0813988
205	0xbe9725fa	-0.2952116
206	0x3e2dbe4f	0.16967128
207	0xbeb3b37d	-0.35097876
208	0x3e60c0ea	0.21948591
209	0x3e877176	0.2645375
210	0x3eab30ee	0.33435768
211	0xbdaacb87	-0.08339601
212	0xbe94bbab	-0.2904943
213	0x3da2cb64	0.0794895
214	0x3e480003	0.19531254
215	0xbeb42b8d	-0.35189477
216	0xbda45a8e	-0.080250844
217	0xbe5906ac	-0.21193951
218	0xbcfd5271	-0.0309231
219	0xbe323348	-0.17402375
220	0xbe13fd5b	-0.14452116
221	0xbde5dd62	-0.11223866
222	0xbeac05fe	-0.33598322
223	0x3e948719	0.2900932
224	0x3e97c111	0.29639485
225	0xbd632bb0	-0.055461586
226	0xbd24eb39	-0.04026339
227	0xbe13c154	-0.14429218
228	0xbea378ca	-0.31928092
229	0xbeb02870	-0.3440585
230	0x3e068e03	0.1314011
231	0xbe46c6a4	-0.19411713
232	0xbe68bf0f	-0.22729133
233	0xbce1fab4	-0.027585365
234	0xbdf12036	-0.11773722
235	0xbdea410a	-0.114381865
236	0x3c3a1faf	0.011360093
237	0xbd9995f7	-0.07499307
238	0xbdf94f0f	-0.12173282
239	0xbe2d58a4	-0.16928345
240	0xbe935189	-0.28773144
241	0x3e97c938	0.29645705
242	0xbe10e21a	-0.14148751
243	0x3dbfdd9a	0.09368439
244	0xbdfb3aeb	-0.12267097
245	0x3ceb5b98	0.028730199
246	0x3ea8c3b0	0.32961798
247	0x3e26cca7	0.16289006
248	0xbe9cdf0d	-0.30638924
249	0x3e0fb1b4	0.14032632
250	0x3eabd4d0	0.335608
251	0x3dbe7e20	0.093014
252	0x3e72b83c	0.23703092
253	0x3eb276f7	0.34856388
254	0xbd5de638	-0.05417463
255	0x3d964915	0.07338158

onnx::LSTM_91 f4 [1, 64]
0	0x3ba2af2d	0.0049647302
1	0x3ea4b16a	0.32166606
2	0xbe9a3ce0	-0.3012457
3	0xbe0a48b4	-0.13504297
4	0x3e5328fd	0.20621105
5	0xbd9dc0d0	-0.07702792
6	0xbd943803	-0.07237246
7	0xbe16e50b	-0.1473581
8	0xbe380831	-0.17971875
9	0x3de196c2	0.11015083
10	0xbdd2c965	-0.10292319
11	0xbe0da335	-0.1383179
12	0x3eac96d8	0.33708835
13	0x3dfc3673	0.12315073
14	0x3e810c92	0.25204903
15	0xbe2f447d	-0.1711597
16	0x3e798e34	0.24370652
17	0x3e3194c4	0.17341906
18	0x3de807d7	0.1132962
19	0xbe4b73dc	-0.19868416
20	0xbe92f13f	-0.2869968
21	0x3d1ca220	0.038240552
22	0x3dd6875f	0.10475039
23	0xbe272855	-0.16323979
24	0xbdca985c	-0.098923415
25	0x3e74825d	0.23877855
26	0x3ce6b819	0.028163956
27	0x3c82ad39	0.01595174
28	0xbdb23222	-0.08700968
29	0xbea3ede3	-0.3201743
30	0xbeaa346c	-0.3324312
31	0xbe2d0f58	-0.16900384
32	0xbe13e17b	-0.14441483
33	0x3e051059	0.12994517
34	0xbe7137a5	-0.23556383
35	0xbe6caa88	-0.23111928
36	0xbc8be40b	-0.017076513
37	0xbe046b65	-0.12931593
38	0xbe87b3dd	-0.26504412
39	0x3e56bf19	0.20971335
40	0xbddad0a5	-0.10684327
41	0x3e839fc1	0.2570782
42	0xbc169776	-0.009191385
43	0x3e8d4db8	0.27598357
44	0x3eae0beb	0.33993468
45	0xbe3061c9	-0.17224802
46	0xbe840e25	-0.2579204
47	0x3e913b70	0.2836566
48	0x3e9191ac	0.2843145
49	0x3d6aecab	0.05735461
50	0xbd7c2498	-0.061558336
51	0xbea7ac5f	-0.32748696
52	0xbe03de56	-0.12877783
53	0x3db856f5	0.09000961
54	0x3e2ab661	0.16671135
55	0xbd371276	-0.04469534
56	0xbe0f220d	-0.13977833
57	0x3e49bcc5	0.19700916
58	0xbe9029eb	-0.2815698
59	0x3e64d0a0	0.22345209
60	0xbe0c7464	-0.13716274
61	0x3bb15113	0.005411276
62	0xbd8f16d4	-0.06986776
63	0x3d2f92a0	0.042864442
