crates/burn-store/pytorch-tests/tests/linear/linear.pt (torch, 1805 bytes, 3 tensors)

fc1.weight f4 [3, 2]
0.3643461 -0.31210154 -0.13708079 0.33189398 -0.6656964 0.4240641
00000000: 928b ba3e c6cb 9fbe e85e 0cbe 02ee a93e
00000010: 146b 2abf ee1e d93e

fc1.bias f4 [3]
-0.14546978 0.35973626 0.09829986
00000000: 08f6 14be 5a2f b83e 7051 c93d

fc2.weight f4 [4, 3]
-0.070693135 0.16013438 0.028481722 0.2108646 -0.22499397 -0.042093873 -0.051977277 0.08368343
-0.0023064017 0.5047004 0.17966568 -0.21500885
00000000: 90c7 90bd 44fa 233e 8052 e93c e4ec 573e
00000010: d264 66be a06a 2cbd 20e6 54bd 3862 ab3d
00000020: 0027 17bb 0c34 013f 48fa 373e 482b 5cbe
