crates/burn-store/pytorch-tests/tests/complex_nested/complex_nested.pt (torch, 14606 bytes, 20 tensors)

conv_blocks.0.conv.weight f4 [4, 2, 3, 2]
00000000: f49d 873d 26b1 8cbd 3820 a23d a094 71bc
00000010: 648e fc3d 0cc0 8c3d 78e6 07bd fafb 6ebe
00000020: 24fb 863d fcda 82be f866 1b3d 5029 9d3c
00000030: 6001 82bd c4b6 713e 30d2 9d3c 2029 f53d
00000040: 1032 fa3d c062 2ebe bc47 e3bd be24 8e3e
00000050: b5c4 90be 709d a0bc 7069 bbbc 9aac 513e
00000060: b0d2 e0bc dcac 9b3d 600a 63bc aa85 25be
00000070: 8a8b 27be 349d 0fbe 8143 86be 61d7 3fbe
00000080: cc23 8b3d d88c 423e 60fe 683c 6580 07be
00000090: ace9 013e b4f2 e2bd a4f6 82bd 490d 22be
000000a0: f0a3 b9bd f7f3 88be 0c43 fc3d e0e1 e53d
000000b0: f0dd 6a3d bc22 113e 7c92 fa3d 2041 513c
0.06621924 -0.06869726 0.079163015 -0.014744908 0.12331846 0.068725675 -0.033178777 -0.23338309
0.0659087 -0.25557697 0.037939996 0.019184738 -0.063479185 0.23604876 0.019265264 0.119707346
0.1221658 -0.17029858 -0.110976666 0.27762407 -0.28275076 -0.019606322 -0.022877425 0.20475999
-0.027444214 0.0760133 -0.013857454 -0.1616427 -0.16361824 -0.14024812 -0.26223376 -0.18734504
0.06793937 0.1899904 0.014220804 -0.13232572 0.12686795 -0.11081448 -0.06394699 -0.1582538
-0.09064472 -0.2674863 0.12317476 0.11224723 0.057340562 0.14173406 0.12234971 0.012771875

conv_blocks.0.conv.bias f4 [4]
00000000: c072 fa3c c094 b43c b6bb 1d3e 1292 463e
0.030572295 0.022043586 0.15403637 0.19391659

conv_blocks.0.norm.weight f4 [4]
00000000: 0000 803f 0000 803f 0000 803f 0000 803f
1.0 1.0 1.0 1.0

conv_blocks.0.norm.bias f4 [4]
00000000: 0000 0000 0000 0000 0000 0000 0000 0000
0.0 0.0 0.0 0.0

conv_blocks.0.norm.running_mean f4 [4]
00000000: b6ed 83bc 70a1 503d 4c13 a9bd 6237 1a3d
-0.01610456 0.05093521 -0.08255634 0.037650473

conv_blocks.0.norm.running_var f4 [4]
00000000: 285c 4f3f 285c 4f3f 285c 4f3f 285c 4f3f
0.80999994 0.80999994 0.80999994 0.80999994

conv_blocks.1.conv.weight f4 [6, 4, 3, 2]
00000000: ea1b 163e 4c4d f23d e8d8 4bbd 30e2 14bc
00000010: a8e9 29bd dc30 f33d b0b5 b93c 6a75 413e
00000020: a807 d43d bea4 32be 8095 743d 4ed8 483e
00000030: dca9 393e 4039 52bb 40b0 8a3d 1113 44be
00000040: 0646 85bd 14db cb3d 8e69 3ebe 041a 363e
00000050: 6c75 09be 1432 843d 8039 fdbb 7855 133d
00000060: 6802 a23c d066 43be c097 33bd 3720 04be
00000070: aeb3 313e 9042 cdbc c620 50be 3080 4a3d
00000080: 888b b53d 5924 bbbd 40dd 9cbc c8b9 b43d
00000090: 3b0e 02be 73fc dcbd 404f a1bc 8fc9 12be
000000a0: 1c77 003e 20c5 883c 6c1e fa3d b0cd df3d
000000b0: 0b16 21be 6d48 02be d4f7 0ebe 465c 86bd
000000c0: aac3 98bd 54b8 06bd 8735 4abe 248a b03d
000000d0: 1029 ed3d 247e 843d 42d3 043e 4806 1d3e
000000e0: ad57 4ebe 9097 fc3c 6ae4 413e 867b 17be
000000f0: 1623 babd d01e 30bc a207 02be 9896 1dbd
00000100: 9019 f7bc ca3b 3a3e 404a 52bc dcb1 e23d
00000110: 0210 193e cc3f ba3d 1ec6 35be f4a9 1c3e
00000120: 1cd7 093e 32d7 15be 4210 95bd 7244 0e3e
00000130: 4431 4bbe a333 37be ccaa 0dbe 4c43 823d
00000140: 88b7 aabd 526a 3abe 1c0c a23d 1c75 d33d
00000150: 9895 9c3d d715 33be 9287 4b3e 7055 7cbc
00000160: 6bf1 46be 90bb fbbc 3c86 083e c085 c03d
00000170: c0f7 0ebb 505a 133e 5ab5 3ebe 9a07 113e
00000180: c67c 4f3e ff32 febd 7c56 333d 48d3 06bd
00000190: 8974 30be 008e eaba ce18 8cbd 3689 32be
000001a0: 044f 18be a0f2 913b 3ec7 413e 8cac 953d
000001b0: 2012 0bbe 5a2c 103e 7042 893c e13e 4cbe
000001c0: 20a4 1e3c 3e2e 063e 39d0 f5bd 30e1 19bc
000001d0: 1747 d0bd f6d0 24be 1a8a edbd 48eb a73c
000001e0: 8e1d 073e 5c5d 1bbd 28fa 3bbe 0006 e5ba
000001f0: fcca 35be 7074 443c 74f9 1a3e 686a b23d
00000200: 38b1 ffbd fc85 38bd 8465 a73d 78d1 623d
00000210: 3d57 44be 49ba f3bd 96d8 93bd bca0 993d
00000220: 46c3 3a3e 8049 ba3d c8eb 9d3d 675e 31be
00000230: 9040 073e e0b7 953d 7e6d 86bd 3495 c8bd
0.14659086 0.118311495 -0.049767405 -0.00908713 -0.041482598 0.118745536 0.022669643 0.18892446
0.10353023 -0.17445657 0.059712887 0.19613764 0.18131202 -0.003207758 0.06771898 -0.19147898
-0.065074965 0.09953895 -0.18594953 0.17783362 -0.13423699 0.06454864 -0.007727802 0.03597018
0.019776538 -0.19082189 -0.043845892 -0.12902914 0.17353699 -0.025056154 -0.20325002 0.049438655
0.08864504 -0.09137792 -0.019148469 0.088244975 -0.12700741 -0.10790338 -0.01969111 -0.14334701
0.12545437 0.016695559 0.12212834 0.10927904 -0.15731065 -0.1272294 -0.13961726 -0.065605685
-0.07459195 -0.032890633 -0.19746982 0.08620098 0.11580098 0.06469372 0.12971213 0.15334427
-0.20150633 0.03083399 0.1893479 -0.14793214 -0.09088723 -0.010749534 -0.12698224 -0.038473696
-0.030163556 0.1818687 -0.012835085 0.1106908 0.14947513 0.090941995 -0.17751357 0.15299207
0.13460964 -0.14632872 -0.072784916 0.13893297 -0.19843012 -0.17890792 -0.13834685 0.06360492
-0.08335787 -0.1820462 0.07912466 0.10325071 0.0764572 -0.174888 0.19875935 -0.015401229
-0.19428031 -0.030729085 0.13332456 0.09400511 -0.002181515 0.1438992 -0.18623868 0.14163056
0.20262441 -0.124120705 0.04378365 -0.032916337 -0.17231955 -0.0017895103 -0.068406686 -0.17435154
-0.14873892 0.004453972 0.18923661 0.07308301 -0.13581133 0.14079419 0.016755313 -0.19945861
0.009682685 0.13103577 -0.12002606 -0.009392068 -0.10169809 -0.16095337 -0.115986064 0.020497933
0.13194868 -0.03793083 -0.18357146 -0.0017473102 -0.17753214 0.0119906515 0.15134221 0.08711702
-0.12484974 -0.045049652 0.081736594 0.055375546 -0.19173904 -0.119007654 -0.07219045 0.07501361
0.18238553 0.0909605 0.07710987 -0.17321168 0.13208222 0.07310462 -0.06563853 -0.09794083

conv_blocks.1.conv.bias f4 [6]
00000000: b0b1 6d3d b699 e2bd c4b3 a93d f2da 1f3e
00000010: 16eb 09be e262 02be
0.058030784 -0.11064474 0.08286241 0.15610865 -0.13468584 -0.12733033

conv_blocks.1.norm.weight f4 [6]
00000000: 0000 803f 0000 803f 0000 803f 0000 803f
00000010: 0000 803f 0000 803f
1.0 1.0 1.0 1.0 1.0 1.0

conv_blocks.1.norm.bias f4 [6]
00000000: 0000 0000 0000 0000 0000 0000 0000 0000
00000010: 0000 0000 0000 0000
0.0 0.0 0.0 0.0 0.0 0.0

conv_blocks.1.norm.running_mean f4 [6]
00000000: c3a5 343c 6237 acbc 43f9 803c e1fa f23c
00000010: c6a2 d1bc e82f c6bc
0.011025849 -0.021022502 0.015743857 0.029660644 -0.025590312 -0.024192765

conv_blocks.1.norm.running_var f4 [6]
00000000: 285c 4f3f 285c 4f3f 285c 4f3f 285c 4f3f
00000010: 285c 4f3f 285c 4f3f
0.80999994 0.80999994 0.80999994 0.80999994 0.80999994 0.80999994

norm1.weight f4 [6]
00000000: 0000 803f 0000 803f 0000 803f 0000 803f
00000010: 0000 803f 0000 803f
1.0 1.0 1.0 1.0 1.0 1.0

norm1.bias f4 [6]
00000000: 0000 0000 0000 0000 0000 0000 0000 0000
00000010: 0000 0000 0000 0000
0.0 0.0 0.0 0.0 0.0 0.0

norm1.running_mean f4 [6]
00000000: 0000 0000 0000 0000 0000 0000 0000 0000
00000010: 0000 0000 0000 0000
0.0 0.0 0.0 0.0 0.0 0.0

norm1.running_var f4 [6]
00000000: 285c 4f3f 285c 4f3f 285c 4f3f 285c 4f3f
00000010: 285c 4f3f 285c 4f3f
0.80999994 0.80999994 0.80999994 0.80999994 0.80999994 0.80999994

fc1.weight f4 [12, 120]
00000000: dc56 1bbd 3511 a0bd 6887 2bbc 8ce3 683d
00000010: 04f2 0b3d 42fd f0bc 30ad 39bc b199 22bd
00000020: 21eb 96bd 301c ccbc 9070 ce3b b39e 3dbd
00000030: 1a10 8cbd 4471 da3c 984f 5c3c f89d e8bc
00000040: 38c3 cc3c 62c9 ac3d 5057 a33b de22 80bd
00000050: f8e1 ac3d fa89 863d 50c0 0ebc c1e5 28bd
00000060: 5ec5 1dbd dc05 a33d c453 433d 8848 40bd
00000070: e0c5 6e3b 8c63 993c bcaf c53c c03b a9bb
00000080: 1bb2 43bd 6005 38bb 0093 cebc a60c fbbc
00000090: 3f5b 39bd eb4d 35bd a031 30bd 7856 133d
000000a0: 6e0f 9ebd 61d1 b1bd fae7 9f3d d43b 063d
000000b0: 50cf 4e3d 281b 233d f89e 0ebd 15d6 6abd
000000c0: 86e1 7ebd d0c4 bcbb e479 b93c 5620 afbd
000000d0: 6c8c 8fbd 7878 523d d8c5 3f3c 08a1 763d
000000e0: 0e86 a63d 744c 633d 2ced 9ebc 535e 26bd
000000f0: 1c9d d33c 0015 983d e43c b3bd 54bf c83c
00000100: 4f1f 90bd cca1 94bd 924c 073d dc33 3e3d
00000110: 4604 003d 487a d93c 88e7 e1bc e0b2 103b
00000120: 7a16 a5bd d7e6 73bd 80cf f43a e86e abbc
00000130: e081 68bc 988e 543d b062 0c3d 187e 9ebc
00000140: 441f f6bc db44 87bd 9473 403d 4c6c 83bd
00000150: 08db e73c 90f6 87bc 888f 913d c092 6ebd
00000160: e359 74bd 40a6 2c3c c0c9 2f3b edd5 20bd
00000170: f8b8 ba3d 97f7 9fbd ac9f 4a3d 8007 363d
00000180: b089 acbc 2276 043d 0843 7bbc 7481 8cbd
00000190: ac75 773d 00b6 c3bc 10bb 5bbc 3431 b73d
000001a0: 5a0b b53d 582a 8bbd 60e7 c3bc 68bc 533d
000001b0: 14c0 673d df8b 88bd 85fd 87bd e4ae 1c3d
000001c0: aa4f 7fbd 2eae 863d 3e16 8fbd 3c3b 5bbd
000001d0: 1cc8 113d 881b 4d3d 4b75 03bd 7b68 58bd
000001e0: 504a 0f3d dc01 f13c 60c3 bf3c f663 acbd
000001f0: 3879 e1bc 7b27 09bd 0071 773a 2080 a73d
00000200: 98bf 87bd 4093 9fba 6868 0f3d ec71 523d
00000210: 512d b9bd c078 763b e654 933d 89f7 73bd
00000220: e894 683d 1057 55bc e449 a83d 3aa9 a0bd
00000230: e82f 833c 4cb1 873d fe4e 873d fafc 3abd
00000240: 91d2 98bd 8049 033b f1da 34bd 54ee 6b3d
00000250: 55f8 41bd d0f6 1d3c 9c95 a3bd 009e 8eb9
00000260: 50e9 a33d 5033 463d 400f 1e3d 01a8 5bbd
00000270: eacd 9f3d 1b6f 3abd 46e0 ab3d 286f 9abd
00000280: 307f 38bd 18ad e3bc 8080 7a3c 0045 4b3d
00000290: c8e8 9f3c acfb 0bbd d0e6 94bd dcd1 dabc
000002a0: 9f0e 31bd f78b 61bd 1cf2 673d 089b 503c
000002b0: 79f9 48bd ecf6 313d 1b2e 7cbd 6cde 5bbd
000002c0: 98e2 10bc 5454 753d 88f0 3e3d 5249 7cbd
000002d0: 80df 83bd 7c7a fb3c c0d8 d8bb 18c6 193c
000002e0: 0060 2a3b a1d7 85bd 9857 7cbc 06f9 eebc
000002f0: a84c 81bc 1c1c 6b3d a86f afbd 1838 083c
00000300: 684a b73d aa43 a7bd 1cd1 053d da44 b93d
00000310: 2420 513d a856 483d bd07 0dbd 74c4 193d
00000320: 602d 2e3c 98ea b43d 372e b4bd 3866 403d
00000330: 15f0 64bd 136f a8bd c445 ae3d c83f 973c
00000340: dd2f 4ebd 6e75 afbd 7cce 95bc ac62 a3bc
00000350: 2005 e5bb 3049 dabc a04a cd3c dc15 7b3d
00000360: 2994 96bd b5c3 0dbd 4229 9f3d df59 b2bd
00000370: 12e7 953d 3c6d 96bc d4ee cc3c 193b 42bd
00000380: 9872 313d 28a4 373c 5481 b8bc d299 b03d
00000390: cc61 a8bd 2276 a13d 50ab 7b3d 0813 66bc
000003a0: 48b1 e8bc aa9f 953d 208c 153d c108 a6bd
000003b0: a973 90bd 1aee b6bd 3195 1dbd 8057 79bc
000003c0: cefc 083d b840 5b3d 37b7 a6bd e8c6 3e3d
000003d0: 1e24 023d 1465 f53c f29c abbd 6624 7abd
000003e0: e08d 33bc 5814 353d d05c b1bc 5090 e9bc
000003f0: 2061 083c 504b eb3b 60ba 35bc b08c f13b
-0.037924632 -0.07815782 -0.010469295 0.05685763 0.03416635 -0.029417638 -0.011332795 -0.039697353
-0.07369066 -0.024915785 0.0063000396 -0.046293925 -0.06839009 0.026665337 0.013446711 -0.028395638
0.024995431 0.08436848 0.0049847737 -0.062566504 0.084415376 0.06569286 -0.008712843 -0.041234735
-0.038518302 0.07960102 0.047687307 -0.04694417 0.003643386 0.018724225 0.024131648 -0.0051645935
-0.047777276 -0.0028079376 -0.02521658 -0.03064568 -0.045253035 -0.04426376 -0.043016076 0.035971135
-0.07717787 -0.08682514 0.07807918 0.0327719 0.050490677 0.03982082 -0.034819573 -0.05733307
-0.062226795 -0.0057607666 0.02264113 -0.085510895 -0.07009205 0.05138442 0.0117048845 0.060212165
0.08131038 0.055492833 -0.019400202 -0.0406173 0.025831752 0.074258804 -0.08751848 0.024505295
-0.07037222 -0.07257423 0.033032008 0.046436176 0.031254075 0.026547566 -0.027576223 0.0022079274
-0.08060928 -0.059546318 0.0018677562 -0.020926908 -0.014191121 0.0518938 0.034273803 -0.019347236
-0.030044205 -0.0660493 0.046985224 -0.0641714 0.028302684 -0.016597062 0.071074545 -0.05824542
-0.059656035 0.010537684 0.0026823133 -0.039266516 0.09117311 -0.07810896 0.04946868 0.044440746
-0.021061748 0.032339223 -0.015335806 -0.06860629 0.060414955 -0.023890495 -0.013411298 0.089449316
0.08840056 -0.06795186 -0.02391404 0.05169335 0.056579664 -0.06667303 -0.06640152 0.038252726
-0.062331833 0.06576191 -0.06986664 -0.053523287 0.03559123 0.050075084 -0.03209428 -0.052834015
0.03498298 0.029419832 0.023408592 -0.084175035 -0.027523622 -0.033484917 0.00094391406 0.08178735
-0.066283405 -0.0012174621 0.03501168 0.051378176 -0.090418465 0.0037608594 0.071939275 -0.05956224
0.056782633 -0.013021246 0.082172185 -0.078447774 0.016014054 0.066256136 0.066068634 -0.045651414
-0.07462037 0.0020032823 -0.04415411 0.057600334 -0.04735597 0.009641364 -0.0798752 -0.0002720207
0.08003485 0.04838878 0.038588762 -0.053627018 0.07802947 -0.045516115 0.08392386 -0.075407326
-0.04504317 -0.027792498 0.015289426 0.04962635 0.019520178 -0.03417556 -0.072705865 -0.026711397
-0.043226834 -0.05506512 0.056627378 0.012732275 -0.04906604 0.043448374 -0.061567407 -0.053678915
-0.008843087 0.059894875 0.046616107 -0.06159336 -0.064391136 0.030698054 -0.0066176355 0.009385608
0.0025997162 -0.065352686 -0.015401743 -0.029171478 -0.015783623 0.057399854 -0.085662186 0.008314155
0.08949739 -0.08167203 0.032670125 0.090463355 0.051056042 0.048910767 -0.034431208 0.037540868
0.010630935 0.08833808 -0.08797877 0.046972483 -0.055893023 -0.08224311 0.085094005 0.01846303
-0.050338615 -0.0856732 -0.018286936 -0.019944511 -0.0069891363 -0.026646227 0.025059998 0.061300144
-0.07352478 -0.03461047 0.07771541 -0.08708548 0.07319464 -0.018362634 0.025016226 -0.04741964
0.043322176 0.0112085715 -0.022522606 0.08623089 -0.08221778 0.0788386 0.061442673 -0.014042623
-0.028404847 0.07305844 0.036510587 -0.081071384 -0.070533104 -0.08932133 -0.03847236 -0.0152186155
0.03344422 0.053528517 -0.08140414 0.04657641 0.031772725 0.029955424 -0.08379544 -0.06106987
-0.010959119 0.044208854 -0.021650702 -0.028511196 0.008323938 0.007180609 -0.011091799 0.0073715076

fc1.bias f4 [12]
00000000: 7050 ad3b 6038 833d 9a2e b43d 08a5 2a3d
00000010: 263d babd 7435 86bc b4d3 a3bd 0020 33b7
00000020: 907b 12bd 9cd9 c53c 3a0d 7abd 45a6 46bd
0.00528913 0.06407237 0.08797951 0.041661292 -0.090936944 -0.01638291 -0.079993635 -1.0676682e-05
-0.03576237 0.024151616 -0.06104777 -0.04849841

fc2.weight f4 [10, 12]
00000000: e8de 363d 4154 6bbe 5826 5bbe 13d0 5cbe
00000010: be22 3e3e 312e 89be 28a7 8f3e 1ce0 763e
00000020: 2cd6 5cbd 66a5 bdbd 30c5 833d 207a a33d
00000030: 2022 9e3c 4088 38bc e657 94bd d44b 673e
00000040: 5ce7 1b3e 7043 65bd 3c56 80be 6042 6ebe
00000050: d816 273e 0025 d5ba a022 07bc 402e b9bb
00000060: 40f9 4f3d e41a 33bd 288f 09bd 00cb acba
00000070: 2a93 3d3e d474 1fbd 5eb4 383e 5c7f a23d
00000080: e827 233e 5e0c 4bbe ccb0 5b3e 70ab 043e
00000090: 88fb e13d 012b 64be 348c 593e a06c 573c
000000a0: b4ce 853d e298 873e c647 70be 01cc 24be
000000b0: bcd1 75be 88e0 673e 70f2 ba3d 2344 4bbe
000000c0: 34d2 9e3d d22e 923e 4cfb fd3d 7c76 3f3e
000000d0: 06ac 1a3e 6d2f 73be d8c1 65be 7015 ba3c
000000e0: e0ed 1a3d f865 8b3d d8d0 8dbe 6c69 e4bd
000000f0: 580e 10bd 9cb1 ee3d d48c 6ebe be73 8cbe
00000100: 1968 02be f8e6 1bbd 1bcc 1dbe b6af 90bd
00000110: 0806 b13d b06f f63c 58df 58be 8470 a0bd
00000120: 9006 76bd e777 88be 0070 8dbc ffe0 4bbe
00000130: 6cc3 48be 0ce6 a8bd e017 1abc c00e 813e
00000140: 4caf 91bd 24bd 553e 0051 8dbb 0088 223e
00000150: e703 11be 26e6 fdbd 2756 72be 50f5 9c3c
00000160: 8e47 80bd f8f3 303d f4be 633e fe41 7ebe
00000170: 7e02 8e3e 201b 3fbc 40f6 193c d03f d13c
00000180: b829 39be 58b5 74be fc89 77be 6c48 633e
00000190: 20c9 66bd c0bf 903d 2c3b 8abd 40e7 5d3e
000001a0: 0003 51be 842f 36bd d8c8 793e 60c7 a1bc
000001b0: f61a bbbd e488 873d c7fc 6bbe f875 6dbd
000001c0: 22fe 7abe 345a 823e ed1c 0fbe a835 3cbe
000001d0: aed8 85be 9484 22bd f4d5 9b3d 3ae7 52be
0.044646174 -0.22981359 -0.21401346 -0.21563749 0.1856794 -0.26793054 0.28057218 0.24108928
-0.053915188 -0.09260063 0.06434095 0.07982278 0.019303381 -0.011262953 -0.07243328 0.2258752
0.15224975 -0.055972517 -0.25065792 -0.23267508 0.16317308 -0.0016261637 -0.008248001 -0.0056512654
0.050774813 -0.043726817 -0.03358379 -0.0013183057 0.1851317 -0.038929775 0.18037555 0.07934448
0.15933192 -0.19828936 0.21454161 0.12956023 0.11034304 -0.2228203 0.2124489 0.013148457
0.06533566 0.26483828 -0.2346488 -0.16093446 -0.24005789 0.22644246 0.091282725 -0.19850211
0.07754937 0.28551346 0.12401447 0.18697542 0.15104684 -0.2374856 -0.22437227 0.0227153
0.03782451 0.06806558 -0.27698398 -0.1115292 -0.03516993 0.1165497 -0.23295909 -0.27432054
-0.12735023 -0.038062066 -0.15409891 -0.07064764 0.086437285 0.030082554 -0.21178949 -0.07833961
-0.060064852 -0.26653978 -0.01726532 -0.19910048 -0.19605798 -0.08247003 -0.009405106 0.25206566
-0.07113513 0.20872933 -0.0043126345 0.15872192 -0.14161645 -0.12397413 -0.23665677 0.019159943
-0.06263648 0.043201417 0.22240812 -0.24829862 0.27736276 -0.011664182 0.0093970895 0.025543123
-0.1808232 -0.23897302 -0.2417373 0.22195596 -0.05634415 0.070678234 -0.067495674 0.21670246
-0.204113 -0.04447891 0.24393022 -0.01974839 -0.09136002 0.06617907 -0.23045646 -0.057973832
-0.24511006 0.25459445 -0.13975878 -0.18379843 -0.26141876 -0.039677218 0.07609168 -0.20596018

fc2.bias f4 [10]
00000000: b033 95bd 20b0 663e dade 92bd 88a2 d4bd
00000010: 682f d5bd a772 1bbe b89d d43d 0ad3 e7bd
00000020: 249a 91be 5064 02bd
-0.07285249 0.22528124 -0.07171412 -0.10382563 -0.10409433 -0.15180455 0.10381645 -0.113195494
-0.28437912 -0.031833947
