crates/burn-store/pytorch-tests/tests/top_level_key/top_level_key.pt (torch, 1660 bytes, 2 tensors)

conv1.weight f4 [2, 2, 2, 2]
0	0x3e3a8b92	0.18217304
1	0xbe1fcbc6	-0.15605077
2	0xbd8c5ee8	-0.068540394
3	0x3e29ee02	0.16594699
4	0xbeaa6b14	-0.3328482
5	0x3e591eee	0.21203205
6	0xbd94f608	-0.07273489
7	0x3e382f5a	0.17986813
8	0x3d495170	0.04914993
9	0xbd315170	-0.043290555
10	0x3dc8d4ac	0.09806189
11	0x3c8ee150	0.017441422
12	0x3e043a0a	0.12912765
13	0xbe0d163b	-0.13778012
14	0xbcd32a90	-0.025777131
15	0xbd025fa0	-0.031829476

conv1.bias f4 [2]
0	0x3d51e6b8	0.05124542
1	0xbab92000	-0.0014123917
