burn-import/pytorch-tests/tests/key_remap_chained/key_remap.pt (torch, 7052 bytes, 15 tensors)

conv.weight f4 [6, 3, 3, 3]
0.14713551 0.1597351 -0.04508576 0.17678683 -0.0421665 0.038834635 -0.0936953 0.1130226
0.16965301 -0.1411868 0.16727689 0.036018826 0.14218384 0.026063627 0.092797145 -0.027172223
0.14835705 0.028445838 -0.089843385 0.049055204 -0.08866881 -0.022569172 -0.07816521 0.1276658
-0.15191436 -0.088721484 -0.054343045 -0.11571494 0.01816404 -0.19007894 0.17380342 -0.16348024
0.14857674 0.03202738 -0.062489416 0.11892453 0.029993495 0.15549262 0.021038584 -0.0606936
0.051708195 -0.05218851 0.08099408 0.17182371 0.111247614 -0.08413389 0.11109464 0.03443437
0.0977329 -0.1172993 -0.19050798 -0.07435512 -0.14761361 0.15791278 0.055431657 0.07971543
0.060864493 -0.0033478567 0.15061304 -0.1367384 0.012117375 -0.13135491 0.05934237 -0.0662764
0.05896984 -0.040095337 0.15961653 -0.114065535 -0.11477685 -0.11478378 0.17309785 0.06413421
0.18518524 -0.15882449 -0.19088665 -0.15056598 -0.12945907 0.077950016 0.06891173 0.15991147
-0.09938611 -0.1311955 0.10210981 -0.07778919 0.11680254 -0.045668527 0.11009029 -0.14952756
-0.09711989 0.0586735 0.0406854 -0.049066834 0.114713624 0.13082935 -0.13955967 -0.102742985
0.17621922 -0.06493892 -0.06822671 -0.18621367 -0.11021043 0.048074737 -0.025402099 -0.13969682
0.0045142425 -0.1314591 -0.16327402 -0.10597508 -0.16843465 -0.122540295 0.19237483 0.036349002
0.059305362 -0.17949519 -0.12639618 -0.06405813 0.030093636 -0.16934094 -0.08292156 -0.11521382
0.0005333289 -0.0716113 -0.013335976 -0.1304099 -0.13209681 -0.11227573 -0.06587517 -0.15189718
0.1613636 -0.03819442 0.16558343 0.059964 -0.16296616 0.13318224 -0.052951645 -0.073771134
-0.15974714 -0.1913263 0.05506202 -0.042039543 0.074925266 -0.15793675 0.14288056 -0.1412687
-0.033231 0.040196992 0.09935271 0.15536694 0.17531419 -0.15259793 0.048433386 -0.082777776
-0.021089606 -0.14404699 0.17529483 -0.14124884 0.10285519 0.06763458 0.0625378 -0.10404741
0.1749278 0.042290986
00000000: b1aa 163e 9991 233e d9ab 38bd 9b07 353e
00000010: c8b6 2cbd 1111 1f3d 52e3 bfbd 6578 e73d
00000020: 85b9 2d3e 4693 10be a24a 2b3e 7a88 133d
00000030: a498 113e 6383 d53c 6e0c be3d 4898 debc
00000040: e9ea 173e 3f07 e93c cfff b7bd 1cee 483d
00000050: fe97 b5bd fce2 b8bc 1515 a0bd d3ba 023e
00000060: 708f 1bbe 9cb3 b5bd d096 5ebd f4fb ecbd
00000070: c1cc 943c 0ea4 42be 86f9 313e 5d67 27be
00000080: 8024 183e 242f 033d e7f4 7fbd b48e f33d
00000090: ebb4 f53c 7539 1f3e 1c59 ac3c da99 78bd
000000a0: f9cb 533d 9ec3 55bd 39e0 a53d 8ef2 2f3e
000000b0: cad5 e33d 644e acbd 9685 e33d 0e0b 0d3d
000000c0: 3028 c83d 9e3a f0bd 8614 43be 7f47 98bd
000000d0: 0628 17be e3b3 213e 4e0c 633d d841 a33d
000000e0: 0c4d 793d b767 5bbb 4e3a 1a3e 2705 0cbe
000000f0: f487 463c e781 06be fc10 733d ecbb 87bd
00000100: 5c8a 713d 023b 24bd 8472 233e 319b e9bd
00000110: 2010 ebbd c213 ebbd 9040 313e cc58 833d
00000120: 33a1 3d3e e3a2 22be ca77 43be f82d 1abe
00000130: eb90 04be 42a4 9f3d 9821 8d3d d5bf 233e
00000140: f28a cbbd 1d58 06be f31e d13d f04f 9fbd
00000150: 2c36 ef3d ec0e 3bbd 0577 e13d c11d 19be
00000160: cbe6 c6bd a053 703d bca5 263d 4efa 48bd
00000170: faee ea3d 21f8 053e bbe8 0ebe ea6a d2bd
00000180: d072 343e b2fe 84bd 72ba 8bbd ccae 3ebe
00000190: 02b6 e1bd 04ea 443d 1018 d0bc af0c 0fbe
000001a0: 36ec 933b 379d 06be 4e31 27be 7609 d9bd
000001b0: 227a 2cbe 68f6 fabd e8fd 443e b1e2 143d
000001c0: 2eea 723d 96cd 37be 006e 01be e930 83bd
000001d0: ee86 f63c b667 2dbe c7d2 a9bd 39f5 ebbd
000001e0: 19cf 0b3a f2a8 92bd 237f 5abc 2c8a 05be
000001f0: 6344 07be d1f0 e5bd 90e9 86bd ef8a 1bbe
00000200: 803c 253e c171 1cbd b48e 293e d09c 753d
00000210: 9ae0 26be ed60 083e d3e3 58bd 5215 97bd
00000220: c194 23be 0beb 43be b688 613d a831 2cbd
00000230: 6b72 993d 2cba 21be 484f 123e bea8 10be
00000240: 3b1d 08bd 9aa5 243d 6f79 cb3d 8318 1f3e
00000250: 9085 333e a242 1cbe 1662 463d 6587 a9bd
00000260: 1cc4 acbc 0e81 13be 7d80 333e 89a3 10be
00000270: bea5 d23d 0084 8a3d d113 803d cf16 d5bd
00000280: 4620 333e 5039 2d3d

bn.weight f4 [6]
1.0 1.0 1.0 1.0 1.0 1.0
00000000: 0000 803f 0000 803f 0000 803f 0000 803f
00000010: 0000 803f 0000 803f

bn.bias f4 [6]
0.0 0.0 0.0 0.0 0.0 0.0
00000000: 0000 0000 0000 0000 0000 0000 0000 0000
00000010: 0000 0000 0000 0000

bn.running_mean f4 [6]
0.034723993 0.014906952 -0.0053225765 -0.035242382 -0.055700716 -0.0050223093
00000000: bf3a 0e3d 4a3c 743c 0269 aebb 515a 10bd
00000010: 6f26 64bd 2f92 a4bb

bn.running_var f4 [6]
0.90470946 0.9037446 0.90406287 0.9012629 0.9037042 0.90280634
00000000: 0a9b 673f ce5b 673f aa70 673f 2ab9 663f
00000010: 2959 673f 511e 673f

layer.0.block.0.weight f4 [6, 6, 1, 1]
0.052517086 -0.35977077 0.17137794 -0.061245654 -0.18702847 0.35066348 0.09101847 -0.22587416
-0.20663036 -0.019496191 0.22795005 -0.10432125 -0.23293623 -0.13980173 -0.30499205 0.1455946
0.3160006 -0.38434142 0.09481595 0.21089773 0.074027404 -0.14538728 0.213082 0.21453986
0.15265515 -0.07173797 -0.10810467 0.04367478 -0.07211874 -0.12165842 0.26095513 0.3508484
-0.040415503 -0.09140551 0.0059572775 -0.024375787
00000000: 281c 573d e033 b8be b37d 2f3e b9dc 7abd
00000010: 6484 3fbe 2a8a b33e e467 ba3d 8e4b 67be
00000020: e996 53be 7ab6 9fbc bd6b 693e 61a6 d5bd
00000030: d686 6ebe 2f28 0fbe eb27 9cbe c016 153e
00000040: d5ca a13e 66c8 c4be dd2e c23d 93f5 573e
00000050: ae9b 973d 67e0 14be 2b32 5a3e 56b0 5b3e
00000060: a251 1c3e 5beb 92bd fb65 ddbd 53e4 323d
00000070: fdb2 93bd 0d28 f9bd e99b 853e 67a2 b33e
00000080: ba8a 25bd d032 bbbd 4435 c33b bbaf c7bc

layer.0.block.1.weight f4 [6]
1.0 1.0 1.0 1.0 1.0 1.0
00000000: 0000 803f 0000 803f 0000 803f 0000 803f
00000010: 0000 803f 0000 803f

layer.0.block.1.bias f4 [6]
0.0 0.0 0.0 0.0 0.0 0.0
00000000: 0000 0000 0000 0000 0000 0000 0000 0000
00000010: 0000 0000 0000 0000

layer.0.block.1.running_mean f4 [6]
-7.4505807e-10 1.4901161e-09 0.0 2.9802323e-09 -5.5879357e-10 7.4505807e-10
00000000: cdcc 4cb0 cdcc cc30 0000 0000 cdcc 4c31
00000010: 9a99 19b0 cdcc 4c30

layer.0.block.1.running_var f4 [6]
0.9346978 0.90944827 0.9705064 0.94486094 0.9042529 0.9326661
00000000: 5b48 6f3f 9ad1 683f 1c73 783f 68e2 713f
00000010: 1e7d 673f 35c3 6e3f

layer.1.block.0.weight f4 [6, 6, 1, 1]
0.0981475 0.1144049 -0.3707943 -0.15065904 0.34379792 0.15903516 -0.02030528 -0.24613525
-0.24976839 -0.3656953 -0.13307361 0.13786715 0.26030797 0.18848716 -0.36086866 -0.24550521
-0.06442838 0.3949188 0.059056178 -0.105724365 0.16889855 -0.15549424 -0.26424104 0.29797524
-0.18563123 -0.08184021 -0.40612715 0.27322862 0.30930305 0.14878535 -0.28466102 -0.40291655
-0.33157068 0.30443087 0.19600236 0.34354275
00000000: 8e01 c93d 1e4d ea3d c0d8 bdbe 5d46 1abe
00000010: 4806 b03e 1dda 223e 4257 a6bc e10a 7cbe
00000020: 49c3 7fbe 6a3c bbbe 7344 08be 0c2d 0d3e
00000030: 1647 853e c702 413e c7c3 b8be b865 7bbe
00000040: 07f3 83bd cc32 ca3e e4e4 713d 0486 d8bd
00000050: bef3 2c3e e239 1fbe 9a4a 87be 3690 983e
00000060: 1d16 3ebe d79b a7bd e6ef cfbe 9fe4 8b3e
00000070: f85c 9e3e 305b 183e 17bf 91be 144b cebe
00000080: a2c3 a9be 5dde 9b3e d8b4 483e d6e4 af3e

layer.1.block.1.weight f4 [6]
1.0 1.0 1.0 1.0 1.0 1.0
00000000: 0000 803f 0000 803f 0000 803f 0000 803f
00000010: 0000 803f 0000 803f

layer.1.block.1.bias f4 [6]
0.0 0.0 0.0 0.0 0.0 0.0
00000000: 0000 0000 0000 0000 0000 0000 0000 0000
00000010: 0000 0000 0000 0000

layer.1.block.1.running_mean f4 [6]
1.8626452e-10 7.4505807e-10 -1.3038516e-09 -3.7252904e-10 7.4505807e-10 -1.1175871e-09
00000000: cdcc 4c2f cdcc 4c30 3333 b3b0 cdcc ccaf
00000010: cdcc 4c30 9a99 99b0

layer.1.block.1.running_var f4 [6]
0.9271742 0.9247047 0.93186325 0.90578055 0.96751547 1.0764385
00000000: 4a5b 6d3f 72b9 6c3f 978e 6e3f 3ce1 673f
00000010: 18af 773f bdc8 893f
