crates/burn-store/pytorch-tests/tests/config/weights_with_config.pt (torch, 2280 bytes, 3 tensors)

fc1.weight f4 [3, 2]
0	0x3e8bbf7e	0.27294534
1	0xbe329a14	-0.17441589
2	0xbbd94980	-0.0066310763
3	0xbf2bf6ea	-0.67173636
4	0xbeb3e3f1	-0.35134843
5	0xbdea6a90	-0.114461064

fc1.bias f4 [3]
0	0xbc16bf00	-0.009200811
1	0xbe544efe	-0.20733258
2	0xbf068f26	-0.5256218

fc2.weight f4 [4, 3]
0	0x3e3ff920	0.18747377
1	0x3def31b8	0.11679405
2	0x3ea05b2a	0.31319553
3	0xbe474146	-0.19458494
4	0xbeb58689	-0.35454205
5	0xbdd0786c	-0.10179219
6	0x3ee3f2b0	0.44521093
7	0x3ecaaa52	0.3958307
8	0x3f0d7610	0.55258274
9	0xbed415ad	-0.41422787
10	0xbf0b8f99	-0.5451599
11	0xbeaba6fe	-0.33525842
