crates/burn-import/pytorch-tests/tests/enum_module/enum_depthwise_true.pt (torch, 2288 bytes, 4 tensors)

conv.dconv.weight f4 [2, 1, 3, 3]
-0.04942727 0.18748574 0.10716152 -0.24995844 0.0669661 0.08006553 -0.22318622 -0.15815744
0.11365855 0.059707522 -0.14179087 -0.1009053 0.30529425 -0.06167376 0.18793055 0.1443344
-0.21546905 -0.28347653
00000000: 4074 4abd 43fc 3f3e 8077 db3d 1bf5 7fbe
00000010: 8625 893d 66f9 a33d ee8a 64be 06f4 21be
00000020: d0c5 e83d e08f 743d a031 11be 70a7 cebd
00000030: 874f 9c3e a09d 7cbd de70 403e 66cc 133e
00000040: eba3 5cbe d623 91be

conv.dconv.bias f4 [2]
0.31996292 0.01740559
00000000: 2ed2 a33e 2b96 8e3c

conv.pconv.weight f4 [2, 2, 1, 1]
0.48469204 0.14653473 0.22742161 0.52817947
00000000: 8e29 f83e 330d 163e 36e1 683e c536 073f

conv.pconv.bias f4 [2]
0.670489 -0.46922264
00000000: 2ba5 2b3f f33d f0be
