crates/burn-store/pytorch-tests/tests/enum_module/enum_depthwise_false.pt (torch, 1766 bytes, 2 tensors)

conv.weight f4 [2, 2, 3, 3]
00000000: 19ba f83d b30f d5bd 3429 3bbd ac92 e23d
00000010: 7139 63be 4abf 103e 5e9d 46bd 7794 f53d
00000020: 4a36 063d 926c ecbc 1ee3 853d bf81 3e3c
00000030: 634d b03d a41d bcbd 0dc7 8cbc d3d4 adbc
00000040: 26ef 0b3d f3d4 76ba f5fc 523e 9737 963d
00000050: 6dc4 b3bd 86c5 11be 80d2 21bd 4d37 d0bd
00000060: b4af 9abd 16e8 383c 80e1 0f3e 0230 033e
00000070: d9f0 6bbe 9b9f 153e a2da 863d 48f1 643e
00000080: bb4f 1f3e 51e9 5bbe 7d7c 65be 9cd4 e8bd
0.1214487 -0.10403385 -0.04569359 0.11063132 -0.22189881 0.14135471 -0.04848992 0.11991208
0.032766618 -0.028860364 0.0653746 0.011627614 0.0860851 -0.09185341 -0.017184759 -0.021219647
0.034163617 -0.0009415887 0.20604308 0.07334822 -0.087776996 -0.14235505 -0.03950739 -0.10166798
-0.07553044 0.011285802 0.14050865 0.12811282 -0.23041095 0.14611666 0.0658467 0.22357666
0.15557759 -0.21475722 -0.2241077 -0.11368677

conv.bias f4 [2]
00000000: b5f0 533e d1cf 20bd
0.20697291 -0.03926069
