crates/burn-store/src/pytorch/tests/store/test_data/model_without_enum_variants.pt (torch, 6373 bytes, 4 tensors)

feature.weight f4 [64, 3]
000000 ec 50 45 3e 43 4c 18 3e 86 77 b8 3d fb 9a 57 be
       0.1926915 0.14872842 0.09007172 -0.21055214
000010 ab f0 8a 3d b7 d5 fc bd 9f 1f 8d bb 62 51 24 be
       0.06784185 -0.1234545 -0.004306748 -0.1604667
000020 99 09 9a bd 48 d4 28 3e 5f c2 20 bd b6 ba 0f be
       -0.07521362 0.16487229 -0.039247867 -0.14036068
000030 f1 11 95 bd 7a 24 65 bd 4e 75 9d bd 19 26 9c 3d
       -0.07278813 -0.05594299 -0.0768839 0.07624454
000040 5b 2c 28 3e fc bd 82 bc e8 bb 4b bd 46 0e 34 3d
       0.1642317 -0.015959732 -0.04973975 0.043958925
000050 e8 43 9b bd e7 d6 dc 3d 03 01 a4 3d 76 18 2c 3e
       -0.075813115 0.10783177 0.080080055 0.16806206
000060 7b fb 02 3e f3 c0 04 3e 0d 0c 7a 3d 5a ad 08 3e
       0.12791245 0.1296423 0.06104665 0.13347378
000070 24 bf bd bc 67 d6 88 3b 28 17 ce bc 5a 19 b0 3d
       -0.023162432 0.0041759494 -0.025157526 0.085985854
000080 67 ca 0d be de 6d b2 bd 3b fb b6 bc 97 db 2f 3e
       -0.13846742 -0.08712362 -0.022336593 0.1717361
000090 f7 9c 02 3d 0b e2 2d bd 33 72 fa 3c f5 a2 9e bd
       0.031887975 -0.0424519 0.030572033 -0.07745925
0000a0 d3 7e 1f be 02 e8 cb 3d 1e 2e b4 bd 68 3a 76 bd
       -0.15575723 0.09956361 -0.08797859 -0.060114294
0000b0 1e 79 02 be 8a 5f 59 3e 65 db fc bd 7b d9 47 bd
       -0.12741515 0.21227852 -0.12346534 -0.04879139
0000c0 a5 26 bb bd 59 c9 86 bd 2b ab ff 3b 0b 5f 57 3d
       -0.0913823 -0.06581373 0.0078023872 0.052580874
0000d0 a4 e1 47 bd 0f fe f3 3d 72 b5 a6 bd 39 bb 96 bd
       -0.048799172 0.11913692 -0.08140077 -0.07359929
0000e0 4d b1 0f be 65 f4 6b 3b 98 00 d0 bb ae 5d 8a 3d
       -0.14032479 0.0036003825 -0.006347727 0.06756149
0000f0 2f 3f 20 bc ed e2 3c 3e e0 97 f2 bd eb ac 0d 3e
       -0.009780689 0.1844594 -0.11845374 0.13835494
000100 50 fb 13 3e af 64 af 3d 87 21 63 3e e2 49 56 3d
       0.14451337 0.08564126 0.22180758 0.052316554
000110 8a fc 0d 3d 67 a7 a1 bc e2 fa d7 bd e0 dd 02 3e
       0.03466467 -0.019733144 -0.10545899 0.12779951
000120 08 0f 8d bc 33 8b 56 3d d3 89 b9 3b 64 9c 2e 3d
       -0.017219082 0.052378844 0.005662182 0.042629614
000130 a7 85 6b 3d d4 6c 83 bd 67 ef 61 be bc c3 99 bd
       0.057500508 -0.06417242 -0.22063981 -0.075080365
000140 71 73 8e 3a bd bf 0a bd 1f 49 09 be 8d c4 6f bd
       0.0010868144 -0.033874262 -0.134068 -0.058537055
000150 68 9f 5b 3d ab e2 56 3d d5 b7 e9 3d d6 39 a9 3b
       0.05361882 0.05246226 0.11412016 0.0051643653
000160 83 5c 98 3d c6 41 45 bd 3b ee d6 bd 62 5b 77 3d
       0.0743952 -0.04815843 -0.104946576 0.060389884
000170 ef 5c 30 be ee 86 a9 bd 6f ac 08 3e c4 0e 46 3d
       -0.17222951 -0.08277689 0.13347028 0.048353925
000180 1a 7d 80 be 9f e2 47 3d f3 ae a0 3d 0b be 3b 3b
       -0.25095445 0.048800107 0.07845869 0.002864721
000190 08 3a 83 3d ed e5 6e 3d b0 81 da 3d 03 62 38 bd
       0.06407553 0.058324743 0.10669267 -0.045015346
0001a0 67 c5 97 bc 3f 2a 9a 3d ef c9 25 3d 08 33 92 3c
       -0.018526746 0.07527589 0.040475782 0.0178466
0001b0 8d 03 d9 3c 58 5f 02 3e 3b 74 09 b9 4d b6 f8 bc
       0.026490951 0.12731683 -0.00013108637 -0.030360365
0001c0 25 33 15 be 83 aa 27 bc c0 69 75 bd fe 66 43 3d
       -0.14570291 -0.010233524 -0.059915304 0.047705643
0001d0 9a b8 94 3d dd 57 15 3c 72 5c 1f bd 0f 3c 58 3d
       0.072617725 0.0091151865 -0.038906522 0.05279165
0001e0 67 45 a6 ba 0a 4b c5 3c 5d 25 59 3c 38 84 9c 3d
       -0.0012685478 0.024083633 0.013253537 0.07642406
0001f0 0b 42 e0 3d 27 38 0b 3d 07 73 93 3d 37 83 28 3d
       0.10950097 0.033989098 0.07199674 0.04114076
000200 37 c0 45 3e cf 3a cf 3d 89 16 13 be 32 65 e7 bd
       0.19311605 0.10118639 -0.14364065 -0.11298598
000210 05 e1 5e bc 49 77 27 3e 42 17 86 3d 77 ee 6b 3d
       -0.0136034535 0.16354097 0.06547405 0.057600465
000220 e5 c7 e9 3d 62 54 f3 3a 19 ea 38 be 6f 87 bd 3d
       0.1141508 0.0018564577 -0.18058051 0.092543475
000230 b6 bd 19 bd 87 93 d3 3d 4c a0 8c bd 5f 6b 82 3d
       -0.037534438 0.10330873 -0.06866512 0.06368136
000240 20 34 c7 bd cb 4a c4 3d 5f ce 25 3e de 8a 14 3e
       -0.09726739 0.09584578 0.16192006 0.14506099
000250 20 c2 dc 3c 0a 57 ac bc f8 13 96 bd b9 e1 2a 3c
       0.026948035 -0.021037597 -0.073280275 0.010429793
000260 44 d9 0e 3d cb 29 c6 3d f9 be 3e bd cc 54 24 3e
       0.03487517 0.0967594 -0.046568844 0.16047972
000270 df f6 7d be a3 06 2b bd 35 d4 f4 bd d9 5d a6 3d
       -0.24801205 -0.041754376 -0.11954538 0.08123369
000280 dd 9d 42 be f9 3f bb 3c 29 eb 22 3b 83 b3 0d bd
       -0.19005533 0.022857653 0.0024859405 -0.034595024
000290 0d f9 ea 3c 31 ad 95 bd 7c 36 8f 3c 60 09 e0 bd
       0.02868321 -0.07308424 0.017482035 -0.10939288
0002a0 ac 0f 24 be 62 89 0a 3e d8 f9 03 3e b2 5c ab 3b
       -0.16021603 0.1352897 0.12888277 0.005229556
0002b0 c3 65 1e be 31 f9 9a 3d 8f d3 9e 3d 6b 84 4f 3e
       -0.15468507 0.07567061 0.07755195 0.20265357
0002c0 fb bb 6a 3b 94 92 45 3c fd ff a4 bd 04 0c aa bc
       0.0035817611 0.012058873 -0.080566384 -0.020757683
0002d0 e7 dc be bd 3b ea 22 be da a5 e8 bd 53 0e 56 bd
       -0.093194775 -0.15909664 -0.11359759 -0.052259754
0002e0 53 7d 54 bd 0f bb 19 be 17 4a 45 be b2 78 51 3c
       -0.05187733 -0.15012763 -0.19266544 0.012785124
0002f0 1f 7e d1 3d 4f a7 63 bd 2d 3c 90 3d f3 61 91 3d
       0.10229134 -0.05557948 0.070427276 0.070987605

feature.bias f4 [64]
000000 87 b2 35 3e cc bb bc bd 18 1c c5 3d a5 0a 0a bd
       0.17743884 -0.09215507 0.09624499 -0.033701558
000010 55 b5 f0 bd 02 a9 12 3d 79 1a 44 3d 6f 9e 0a 3e
       -0.11753336 0.03580571 0.04787681 0.13537
000020 9b 79 57 3d d0 45 58 3e 58 4d 55 bd f3 df be bd
       0.052606206 0.21120381 -0.052075714 -0.09320059
000030 26 af 97 3c 3b de da 3d 03 ca 05 3e 25 59 3c 3d
       0.018516134 0.10686918 0.13065343 0.045983452
000040 e9 d5 a6 bd 57 26 d1 bd 7e b8 4a bd 12 96 72 bd
       -0.08146269 -0.10212391 -0.04949235 -0.05922515
000050 d0 d4 7c 3c c2 89 34 3d 40 f6 72 bc 98 68 6d be
       0.015431598 0.04407669 -0.014829218 -0.2318443
000060 d6 04 23 bd 9d 48 dd 3d 4b 5c 36 be 83 6c 1a 3e
       -0.039799534 0.108048655 -0.17808644 0.15080456
000070 dd 7b fd 3c 3a ed 4c bd fa f7 d3 3d 19 05 2d 3e
       0.030942852 -0.050030924 0.10350032 0.16896476
000080 c8 31 ec b9 f7 ad 2a 3e cd 2e 7c 3c cf 23 d9 bd
       -0.00045050518 0.16667925 0.015392018 -0.10602533
000090 80 8f 6a bd fb ea 08 3c 1e cd 23 3d df b1 4b 3e
       -0.05726576 0.008356805 0.039990537 0.19892071
0000a0 80 e3 eb bb 73 91 b9 bd c3 c9 51 be 6f 66 dd bd
       -0.007198751 -0.09060945 -0.20487122 -0.10810553
0000b0 b3 fd e6 3a 5b 2a 00 3c 3b 3c 9e 3c 5f cd 27 3d
       0.0017623216 0.007822598 0.01931583 0.04096734
0000c0 2f 49 be bd 6d 41 e2 3c 27 b9 5c bd 47 79 3d 3d
       -0.092913024 0.027619088 -0.053887513 0.046258237
0000d0 1b 90 b2 bd f3 b8 31 bb 81 b0 10 bd 23 e6 15 3e
       -0.08718892 -0.0027118295 -0.035324577 0.14638571
0000e0 75 8e 00 3e 47 6c 92 bd f9 e1 ae 3d 05 1f 52 3d
       0.12554343 -0.071495585 0.085391946 0.051299114
0000f0 e7 12 5d 3d 80 a1 67 3d 1b 2c 4f 3d eb 3b b6 3c
       0.053973105 0.056550503 0.05057917 0.022245368

classifier.weight f4 [10, 64]
000000 fa 62 8c bd 72 d5 66 3d b1 55 1a be a5 ee 24 be
       -0.06854816 0.0563559 -0.15071751 -0.1610666
000010 52 74 17 be 3f 0f 31 3d 75 d7 4c bc 87 2d a0 3d
       -0.14790466 0.04322743 -0.012502541 0.07821184
000020 bc b6 23 be 6c cc 32 bc 0d 79 92 3d af 40 80 3b
       -0.15987676 -0.010912996 0.07151995 0.003913961
000030 57 b8 05 3e 3e 02 ca 3c 5c 81 4a be 28 91 ea 3a
       0.13058601 0.024659272 -0.19775909 0.0017896043
000040 93 3d 0d be 17 2a 80 3d 77 59 84 be 61 48 1d bb
       -0.1379302 0.06258028 -0.25849506 -0.002399944
000050 65 33 48 bc 10 fc 98 bd 81 08 2f 3e 14 cd bd 3b
       -0.012219285 -0.07469952 0.17093088 0.0057922695
000060 8f 52 f4 3d fb 60 46 3e 93 3d 95 3d 16 e3 c8 3d
       0.11929809 0.19372933 0.07287135 0.09808938
000070 28 d1 29 3d 3b dd ec 3d d5 68 dc 3c 00 0e 70 bb
       0.041459233 0.11565634 0.026905457 -0.0036629438
000080 a4 54 c7 3d 5d e3 cf bd 2d f8 5d bd cf a4 34 bd
       0.09732941 -0.10150788 -0.054191757 -0.044102486
000090 36 75 00 bd 27 c5 53 bc 9b 6c 92 bd f7 d9 9b bb
       -0.03136178 -0.012925423 -0.07149621 -0.004756208
0000a0 95 ec 4e 3e ad 02 d0 3c 59 c8 bf 3d b3 dd 91 3d
       0.20207436 0.0253919 0.09364385 0.07122364
0000b0 bd 2d 50 bb 45 87 26 3c ea 8d 09 3e df 13 92 3d
       -0.0031765543 0.010164087 0.13433042 0.07132696
0000c0 cf 65 25 3d 07 39 92 bd 6a bf aa 3d 61 4f c4 bd
       0.040380295 -0.07139783 0.083372906 -0.09585453
0000d0 00 cf 39 3d 1b 33 ff 3d bd 2f 6c be 1b c7 03 be
       0.045363426 0.124609195 -0.23065086 -0.12868921
0000e0 ef 5c 93 3c cf c7 59 be b7 ae 5b bc 40 26 d5 bd
       0.01798865 -0.21267627 -0.0134083545 -0.10407686
0000f0 81 9d 9c bd 5c 26 b5 bb e0 c0 f6 3d e6 35 c9 bd
       -0.07647229 -0.0055282544 0.12048507 -0.098247334
000100 45 89 31 3d 6f e1 92 bd b3 23 d8 3d ee d3 14 be
       0.0433438 -0.07171904 0.10553684 -0.1453397
000110 97 86 3e 3d 39 1f 18 3d 52 26 f4 b9 74 55 02 3c
       0.046515074 0.03713915 -0.00046567857 0.007954944
000120 e3 e6 1a 3d 4c 68 90 3d b5 81 30 be b4 be ac bd
       0.037817847 0.07051143 -0.1723698 -0.08434811
000130 1c 3c 32 3d 97 d0 d9 3c bf 79 70 bd 37 7a 07 3c
       0.043514356 0.026588721 -0.058709856 0.008268884
000140 73 53 b5 3d 47 75 95 3c 03 0d a1 3d f5 ca bd bb
       0.08853807 0.018244399 0.0786381 -0.0057920166
000150 2a 1b 68 3d ff 5b 91 bd a7 ae 47 bd 6f 27 a4 3b
       0.05666653 -0.07097625 -0.048750546 0.0050095837
000160 40 34 79 3d 3b 00 27 3e 6d cf 0a bc 72 16 de 3d
       0.060840845 0.16308682 -0.008472306 0.10844125
000170 37 1a c2 3d dc 92 8a bd 2b b5 6a bd 4b 4c 07 bd
       0.09477656 -0.067662925 -0.05730168 -0.033031743
000180 7b 99 a2 bd ed b1 19 3d ff 07 10 3c 7d 41 fe bd
       -0.0793943 0.0375232 0.008790969 -0.12414835
000190 1a 2d 03 bd ba ed ac bd e2 d4 61 bd 6d ab 4b 3e
       -0.032025434 -0.0844378 -0.05513466 0.19889612
0001a0 89 97 42 3e 85 93 2d 3e 69 16 38 3b af a9 8f bc
       0.19003119 0.16950805 0.002808953 -0.017536966
0001b0 21 9b 35 be 7e 4f 90 bd 40 a6 21 bd 9f 35 41 3e
       -0.17734958 -0.07046412 -0.03946519 0.18868111
0001c0 df f2 b2 bc 7b 3b 88 3c 15 90 5b 3e 35 8c 2e 3e
       -0.021844326 0.016629925 0.21441682 0.17045672
0001d0 60 ae 0d 3d 33 94 83 3d 5b 14 a7 bc fd 5c 8c 3d
       0.034590125 0.06424751 -0.020395448 0.068536736
0001e0 5d dd 64 bc 53 d1 f1 bd 3b 5f 03 be 25 b3 37 3d
       -0.013968793 -0.118075036 -0.12829296 0.04484858
0001f0 52 f7 71 bd 82 e9 ae 3d 59 bb 48 bd d3 3b 13 bd
       -0.059073754 0.08540632 -0.049006794 -0.035945725
000200 2e 79 88 3d a0 5a f3 bb 52 b5 ab bc 21 40 88 3c
       0.06663738 -0.007426575 -0.020960484 0.016632142
000210 22 8f 16 3e 30 53 c0 bd dd 4c 76 bd 24 40 23 bc
       0.14703038 -0.09390867 -0.060131896 -0.009964023
000220 54 c2 c9 bd 78 d1 7e be 51 b5 07 bd e3 c3 ac 3d
       -0.09851518 -0.24884593 -0.0331319 0.084358
000230 af 3a ca 3d 13 fa 07 bd 7f 66 a5 bd 6d d4 a8 3d
       0.09874474 -0.033197474 -0.0807619 0.08243642
000240 99 df 21 3b 08 f0 d9 bd 08 b0 9b bd 1a ea 26 bd
       0.0024699925 -0.106414855 -0.07601935 -0.0407506
000250 9f 17 c5 3d 5d b4 69 bc cf 34 7a 3c 97 4b 7e bb
       0.09623646 -0.014264193 0.01527138 -0.003880238
000260 8e 74 c1 3d cf 09 22 be ff 29 ca 3d 50 a2 ea 3d
       0.09446059 -0.15824054 0.09871291 0.1145674
000270 0b 58 68 bc 02 61 e2 bc db 47 9e bc b2 15 9f 3d
       -0.014181147 -0.027634148 -0.019321373 0.0776781
000280 c3 0e 8c 3d 52 a3 07 be 18 63 53 bd e2 d5 75 3d
       0.06838753 -0.13245896 -0.051608175 0.060018428
000290 37 9a 40 bd ea 4c 79 bd e3 5c 97 bb 15 86 28 be
       -0.04702207 -0.060864367 -0.0046192273 -0.16457398
0002a0 8e f8 45 bd bb 9c 97 bd c3 ba 00 3d 98 ec 67 3c
       -0.048332743 -0.07402941 0.03142811 0.014155529
0002b0 40 ee d3 3d 5f 4b 80 bd 55 fb 52 bd 13 5f 8d 3d
       0.10348177 -0.06264376 -0.05150922 0.069028996
0002c0 91 57 4a bd 3d c7 e8 3d 71 2b 3d bd e9 67 11 3e
       -0.049399916 0.11366127 -0.046184007 0.14199795
0002d0 d5 c6 ad 3d 17 ee 9c bb d0 eb 88 3d 33 9a d5 3d
       0.0848519 -0.0047891247 0.06685603 0.10429802
0002e0 ba 4a 8d 3d cd 71 06 be 32 c0 77 3b c8 a8 ef bd
       0.068990186 -0.13129349 0.0037803766 -0.11702114
0002f0 2c 0f 29 bc b2 9a f3 3d 4b ca 9b 3d df d7 98 bd
       -0.010318559 0.1189474 0.07606944 -0.07463049
000300 b2 b5 0d be 2f 6c 47 3d 37 37 cd bd f0 ee 57 3b
       -0.13838843 0.048687156 -0.10020297 0.0032948814
000310 73 cc 2f bd 7c 12 c9 bd 5d 7e 83 bd 0f 49 a9 3d
       -0.042919587 -0.09817979 -0.06420586 0.08265888
000320 7e f5 22 3e c5 f0 45 bc 64 d8 45 bd 96 a0 39 3c
       0.1591396 -0.01208133 -0.04830207 0.011329791
000330 eb ce fc 3b f9 fd bc bd 8d 3a 01 be 78 6c de 3d
       0.007715096 -0.09228129 -0.12619992 0.108605325
000340 95 97 e0 3d 3b 05 8c bd 30 69 d8 3b 63 59 a2 b8
       0.10966412 -0.06836935 0.006604336 -7.7414115e-05
000350 8b c2 84 3c a8 ee f4 3d 08 c0 05 be 48 c4 0f be
       0.016206047 0.119595826 -0.13061535 -0.14039719
000360 db 07 d9 bd 3a 74 fa 3c 00 02 2a 3d 2f ed 92 bd
       -0.105972014 0.030573 0.041505814 -0.071741454
000370 63 19 91 3e 27 09 48 3e f5 c8 51 3e 8b d4 de bd
       0.2833968 0.19534741 0.20486815 -0.10880383
000380 c0 0f 26 3e d7 56 ae 3d 53 08 24 bd 2a 60 79 bd
       0.16216946 0.08512657 -0.040047 -0.060882725
000390 ad 1d 50 bd 67 55 7d bd 2f a8 28 be 3d 37 d4 bd
       -0.05080955 -0.061849024 -0.16470407 -0.10362098
0003a0 fb 71 38 bd 5d 18 ef bb 38 71 60 bd b3 fe e9 bd
       -0.045030575 -0.0072966055 -0.054795474 -0.11425533
0003b0 0f cf 37 bd fc 95 47 bb bb e3 1c 3d 8f b3 92 bb
       -0.0448752 -0.0030454388 0.03830312 -0.0044769715
0003c0 eb a6 f1 3d ba c0 07 bd bb 04 85 3d 7d 94 1b 3c
       0.11799415 -0.033142783 0.06495043 0.009495852
0003d0 40 21 9a bd 7a 8d 84 bd b8 4d 03 be f5 3e 49 3e
       -0.07525873 -0.06472297 -0.12822616 0.19652922
0003e0 74 65 c5 bd 7c 6b 83 be 27 54 91 3d 5f e7 a7 3d
       -0.09638491 -0.25667942 0.07096129 0.081984274
0003f0 5a 8b 7e 3d 46 56 2d 3d 09 d0 0a bd 70 29 54 3d
       0.062144615 0.042318605 -0.033889804 0.05179733

classifier.bias f4 [10]
000000 d5 5e 46 bc 61 e3 d8 bb 41 27 e7 bd 04 24 a1 bd
       -0.012107571 -0.0066189026 -0.11286784 -0.078681976
000010 0a 1c c6 3c b1 21 85 bd 42 ff bf bc c3 a3 58 be
       0.024183292 -0.06500567 -0.023437146 -0.2115622
000020 a1 d2 2b bb 67 b3 3c 3e
       -0.0026218074 0.18427812
